Project1/best_model.pth (torch, 135522 bytes, 13 tensors)

model.0.weight f4 [128, 182]
0	0x3db055a3	0.08610084
1	0xbda3511e	-0.07974456
2	0xbd2b1cb1	-0.04177541
3	0xbbf3b7d1	-0.007437684
4	0x3c3bf202	0.011471273
5	0x3c3bf382	0.011471631
6	0xbe0c89f1	-0.13724495
7	0x3e16c772	0.1472452
8	0x3d124595	0.03571089
9	0x3e842770	0.25811338
10	0x3d438e1c	0.047742948
11	0xbe8a8a2d	-0.27058545
12	0x3e1a61ab	0.1507632
13	0xbdfb9c63	-0.12285688
14	0x3d20f0d9	0.03929219
15	0x3e59e299	0.21277846
16	0x3eb62958	0.35578418
17	0x3e8e1f15	0.2775809
18	0xbdc97962	-0.09837605
19	0xbdb2aef3	-0.08724775
20	0x3d8ed485	0.06974129
21	0xbdcb67b8	-0.09931892
22	0x3de18ba2	0.11012961
23	0x3dff8ff1	0.124786265
24	0xbe28d434	-0.16487199
25	0xbee7b585	-0.45255676
26	0x3d76740e	0.060169272
27	0x3dc58eac	0.09646353
28	0x3d7b2b21	0.061320428
29	0x3d591b9a	0.05300484
30	0xbd95d672	-0.07316293
31	0xbc697853	-0.014249879
32	0xbd16514a	-0.036698617
33	0x3c90df10	0.01768449
34	0xbdd5bced	-0.10436425
35	0x3eba8d99	0.36436155
36	0xbc1a45c9	-0.009416052
37	0x3c210729	0.009828367
38	0xbd7c8930	-0.06165427
39	0x3d74bffd	0.059753407
40	0xbdca6d77	-0.0988416
41	0xbe7f9acd	-0.24961396
42	0xbde7a1a1	-0.11310125
43	0xbe5f83fb	-0.2182769
44	0x3ea3ca67	0.31990358
45	0xbd93f6af	-0.072247855
46	0x3d9a29cc	0.07527503
47	0xbe68dbf2	-0.22740152
48	0x3dc3d46b	0.09562
49	0xbe46cdc3	-0.1941443
50	0xbe28a309	-0.16468443
51	0x3dcb51e3	0.09927728
52	0x3dc7940f	0.09745037
53	0x3da96693	0.082715176
54	0x3e928840	0.28619576
55	0xbdf747c1	-0.12074233
56	0xbdbe3f10	-0.09289372
57	0xbd15fda2	-0.036618836
58	0x3e2c45f1	0.16823556
59	0xbdb776dd	-0.08958218
60	0xbe5960d5	-0.21228345
61	0x3e0fb7bf	0.14034937
62	0xbd70a760	-0.05875337
63	0xbea55148	-0.32288575
64	0xbde76bd1	-0.11299861
65	0x3d5d2a90	0.05399567
66	0x3e0236a2	0.12716153
67	0x3d125476	0.03572508
68	0x3e1713da	0.14753667
69	0xbd5e5da3	-0.054288518
70	0x3da25c22	0.07927729
71	0xbd4988d2	-0.049202748
72	0x3e4f9f2b	0.20275562
73	0xbd95a7a9	-0.07307369
74	0x3e855e38	0.26048446
75	0x3e09fa72	0.13474444
76	0x3e302e10	0.17205071
77	0x3e68e64b	0.227441
78	0x3dd40225	0.103519715
79	0x3ed05ba9	0.4069493
80	0xbe393836	-0.18087849
81	0x3d62e148	0.055390626
82	0xbcce9e06	-0.025221836
83	0xbe2a6be5	-0.16642721
84	0xbe75dcb1	-0.24009968
85	0x3e0f512b	0.13995807
86	0xbc73f864	-0.014890764
87	0x3cf253b8	0.029580936
88	0xbe196bae	-0.14982483
89	0xbb2b9012	-0.0026178402
90	0xbd839ff8	-0.06426996
91	0xbe2bb07b	-0.1676654
92	0xbe23d949	-0.16000856
93	0xbeb48b91	-0.3526273
94	0x3eac3355	0.33632913
95	0xbd90266e	-0.0703858
96	0xbf05bf0c	-0.5224464
97	0x3d255051	0.0403598
98	0x3ce2f9a4	0.027706929
99	0x3e719eb9	0.23595704
100	0xbb1080ba	-0.0022049383
101	0x3d8957f0	0.06706226
102	0x3e9940e1	0.2993231
103	0x3d868905	0.06569103
104	0xbdfa3757	-0.122175865
105	0xbdb7389f	-0.089463465
106	0xbe636399	-0.22205962
107	0xbcd96479	-0.026537167
108	0xbdd50616	-0.104015514
109	0xbe5833f6	-0.21113572
110	0xbc886d8b	-0.016653797
111	0x3da2099b	0.07911988
112	0xbd8f1c2c	-0.06987795
113	0x3d422636	0.047399722
114	0x3e698fef	0.22808813
115	0x3bbc25a8	0.0057417937
116	0xbe16e3e4	-0.14735371
117	0xbdc3de06	-0.09563832
118	0x3eec47c6	0.4614851
119	0xbd4c6e8d	-0.049910117
120	0xbe5525fe	-0.20815274
121	0xbdbb59f8	-0.091480196
122	0xbe4e99d4	-0.20175868
123	0xbc98ae30	-0.018637747
124	0x3d1f0384	0.038821712
125	0x3ebddf44	0.370844
126	0xbd3af101	-0.045639995
127	0xbd6ea55d	-0.05826317
128	0xbcd6b699	-0.026210116
129	0xbde132a2	-0.109959856
130	0xbd2a217f	-0.04153585
131	0xbc6fff08	-0.0146482065
132	0xbc557aa6	-0.01302973
133	0xbf3364ee	-0.7007588
134	0x3e2d8bbc	0.16947836
135	0x3eb589de	0.35456747
136	0x3c8e9f3b	0.017409911
137	0x3e035f24	0.12829262
138	0xbe52c857	-0.20584236
139	0x3de5fdfd	0.11230085
140	0xbe4204a3	-0.18947081
141	0xbee93596	-0.45548695
142	0xbdc0cb7f	-0.09413814
143	0xbcb6a483	-0.022295242
144	0x3d430e8a	0.047621287
145	0xbe2745cf	-0.16335224
146	0xbdaa7b62	-0.08324315
147	0xbe312e10	-0.17302728
148	0x3d775f28	0.060393482
149	0xbdcac4af	-0.09900796
150	0xbe9a4432	-0.30130154
151	0xbdd2405a	-0.1026618
152	0xbe961a45	-0.29316917
153	0x3df579fb	0.119861566
154	0x3dca0fd7	0.098663025
155	0x3e8aec1e	0.27133268
156	0xbb292530	-0.002580952
157	0xbede32d0	-0.43398142
158	0xbe3cd5d6	-0.18440947
159	0x3dc2b68b	0.095074736
160	0x3cea7c11	0.028623613
161	0xbe423b17	-0.18967853
162	0x3d25e15f	0.040498134
163	0x3dbd5683	0.092450164
164	0x3d06416f	0.032777246
165	0x3d9e1818	0.07719439
166	0xbc79b631	-0.015241192
167	0xbe2d7399	-0.16938628
168	0x3e3e2373	0.1856821
169	0xbccf4e16	-0.025305789
170	0xbc910549	-0.017702715
171	0x3dbe21cd	0.09283791
172	0xbb317454	-0.0027077394
173	0x3e109722	0.14120153
174	0xbe3efa53	-0.18650179
175	0xbcee054e	-0.029055264
176	0xbdb503f5	-0.08838645
177	0x3dc94372	0.09827317
178	0xbd36e2b4	-0.044649795
179	0xbd79d4cb	-0.06099395
180	0x3e3f68e4	0.18692356
181	0xbdb42efc	-0.08798024
182	0x3d3c5884	0.045982853
183	0x3e2cd710	0.16878915
184	0x3da48170	0.08032501
185	0x3dbc7ac4	0.09203103
186	0x3cfe0614	0.031008758
187	0xbd66feda	-0.05639539
188	0x3c88d434	0.016702749
189	0xbe2384d9	-0.15968646
190	0xbcf0f95b	-0.029415777
191	0x3de49d4b	0.11162814
192	0xbda2354d	-0.079203226
193	0xbeb85d4c	-0.3600868
194	0x3da36926	0.0797904
195	0xbe2ad5e8	-0.16683161
196	0xbd2345d9	-0.039861534
197	0x3c69e07e	0.0142747145
198	0xbe26a0fd	-0.1627235
199	0xbe737de8	-0.23778498
200	0xbe252ea7	-0.16131078
201	0xbe0e3df8	-0.13890827
202	0x3e7d9354	0.24763232
203	0xbe1860b0	-0.14880633
204	0x3dddfbb0	0.10839021
205	0x3b972c24	0.0046134163
206	0xbe3ef8e7	-0.18649636
207	0xbdcf53c6	-0.101234004
208	0xbd868d11	-0.06569875
209	0xbe0e3b4a	-0.13889804
210	0x3db20eb1	0.086942084
211	0x3c1898cf	0.009313776
212	0xbe2d92d4	-0.16950542
213	0x3e2c1d3a	0.16808024
214	0x3da47581	0.080302246
215	0x3dd5a1f7	0.10431283
216	0xbda6a003	-0.081359886
217	0x3e029a58	0.1275419
218	0xbe0cfd75	-0.13768561
219	0xbc8c4ced	-0.017126525
220	0x3d9f30dc	0.07772991
221	0xbd53373a	-0.05156634
222	0xbe4873ec	-0.1957547
223	0x3e05e08f	0.13073944
224	0x3d0a04f4	0.03369613
225	0x3d06483c	0.03278373
226	0xbd4f4580	-0.05060339
227	0x3da3eb4a	0.08003862
228	0xbe781bd1	-0.24229361
229	0xbe062f01	-0.13103868
230	0xbea02e2e	-0.31285232
231	0xbe52ac82	-0.20573619
232	0x3e90db0c	0.2829212
233	0xbdd7f0f5	-0.10544006
234	0x3db4ac66	0.08821945
235	0xbc841e31	-0.016127678
236	0xbc80f51c	-0.015741877
237	0x3dc94387	0.09827333
238	0xbe56034b	-0.20899694
239	0x3e3d75e0	0.18501997
240	0x3d849375	0.06473438
241	0x3e23e34d	0.16004677
242	0x3de3579c	0.111006945
243	0x3d3d005c	0.04614292
244	0x3eb1f242	0.3475514
245	0xbe5e3760	-0.21700811
246	0x3e26f3c3	0.16303925
247	0xbd92b0d9	-0.07162637
248	0xbe361d61	-0.17784645
249	0xbe8abb31	-0.2709594
250	0x3e964922	0.2935267
251	0x3c18f9be	0.009336887
252	0x3d7a564a	0.061117448
253	0x3db7fcab	0.089837395
254	0x3ddcbd31	0.10778273
255	0x3d4653d3	0.048419785

model.0.bias f4 [128]
0	0x3e81c8d9	0.25348547
1	0xbe684172	-0.22681215
2	0xbe6beba3	-0.23039107
3	0x3c85f058	0.016349956
4	0x3aaeb40b	0.0013328803
5	0x3c414f8e	0.0117987525
6	0xbd852181	-0.06500531
7	0xbe2bdd15	-0.16783555
8	0xbd9c0504	-0.07618144
9	0x3d8e928e	0.06961547
10	0x3e44b9c8	0.19211495
11	0xbcc9a8d7	-0.024616642
12	0xbdd1f7b1	-0.102523215
13	0x3e0ff5a4	0.14058548
14	0xbe6fc623	-0.23415427
15	0xbcb414bd	-0.021982545
16	0xbdb316e2	-0.08744599
17	0xbe334ed3	-0.17510538
18	0x3c11c6ed	0.008897525
19	0x3e290cfa	0.16508856
20	0xbd2c94b1	-0.04213399
21	0x3c44385c	0.011976328
22	0x3ec7b17a	0.3900259
23	0x3cfe1cf4	0.031019665
24	0x3e11f5db	0.14253943
25	0xbdc58ecf	-0.09646379
26	0x3b01333d	0.0019714378
27	0xbe2f4796	-0.17117152
28	0x3ed28080	0.41113663
29	0x3d0bce32	0.03413219
30	0xbe8ca8f6	-0.27472657
31	0x3c9d2864	0.019184299
32	0xbd406b61	-0.046977405
33	0xbc8f2254	-0.017472424
34	0xbe49f79f	-0.19723366
35	0xbe2ca5bc	-0.16860098
36	0x3cc526ea	0.024066407
37	0xbc8ac86c	-0.016941272
38	0xbe85baff	-0.2611923
39	0x3e276c4e	0.16349909
40	0xbddec088	-0.10876566
41	0x3dc0cb66	0.09413795
42	0xbd8d95da	-0.069133475
43	0x3e5ec7f1	0.21755959
44	0xbcae7942	-0.021298055
45	0x3d2910fd	0.041275967
46	0x3d83c6ca	0.064344004
47	0x3e34297a	0.17593947
48	0xbe1fff44	-0.1562472
49	0xbe06b653	-0.13155489
50	0x3d8540b8	0.06506485
51	0x3d65b3b0	0.056079566
52	0xbdf938f7	-0.12169068
53	0x3bca8468	0.006180335
54	0xbdaed699	-0.08537025
55	0x3d076930	0.0330593
56	0xbdc077ec	-0.09397873
57	0xbe9d25a0	-0.30692768
58	0x3ddccad6	0.107808754
59	0xbe0e85d5	-0.1391824
60	0xbe6d85c0	-0.23195553
61	0x3de8ff9c	0.113768786
62	0xbe45a1e6	-0.1930004
63	0x3d25626b	0.04037706
64	0x3e530b2f	0.20609735
65	0xbd2597f6	-0.040428124
66	0xbdb77bee	-0.089591846
67	0x3c81b776	0.015834551
68	0xbe017cbe	-0.12645242
69	0x3e4e3e09	0.20140852
70	0xbdbd62e6	-0.09247379
71	0x3d660520	0.05615723
72	0x3e403270	0.1876924
73	0xbe3911e0	-0.18073225
74	0xbdffa083	-0.12481787
75	0xbdf22a5d	-0.118244864
76	0x3e10a244	0.141244
77	0xbcf38f29	-0.02973135
78	0x3e00a67c	0.12563509
79	0xbe2a3325	-0.16621073
80	0xbd3e3862	-0.04644049
81	0x3dfd282d	0.123611785
82	0x3e42fe38	0.1904229
83	0x3e7e2518	0.24818838
84	0xbe254e53	-0.1614316
85	0xbd6253c3	-0.055255663
86	0x3e4a1dcb	0.19737928
87	0x3e19c988	0.15018284
88	0x3dafc89f	0.08583187
89	0xbdd5328a	-0.1041003
90	0xbe15580e	-0.14584371
91	0xbdce3426	-0.1006854
92	0x3e1e1638	0.15438163
93	0x3e5b0bfb	0.21391289
94	0xbd8c47c9	-0.068496294
95	0xbd807c60	-0.06273723
96	0x3d2a7ea8	0.041624695
97	0x3b9037f9	0.0044012037
98	0xbdd3c11e	-0.103395686
99	0xbd89842f	-0.06714665
100	0xbd1b82f9	-0.037966702
101	0x3d9f3e3c	0.07775542
102	0x3de1a050	0.11016905
103	0x3d3cc2eb	0.046084326
104	0xbd82271c	-0.06355116
105	0xbe89f050	-0.26941156
106	0xbe1f2fe9	-0.1554562
107	0x3db10145	0.0864282
108	0x3e09cbe8	0.1345669
109	0x3d2c5639	0.042074416
110	0xbd17be53	-0.03704674
111	0xbe1bed83	-0.15227322
112	0x3e784fec	0.24249238
113	0x3e4d16b8	0.20028198
114	0x3e42fc28	0.19041502
115	0x3d8536b7	0.06504577
116	0xbe08f0e3	-0.13373141
117	0xbe4f78f0	-0.20260978
118	0xbd1cbc27	-0.038265374
119	0x3e2dfcbe	0.16990945
120	0x3e959ef3	0.2922283
121	0xbe344801	-0.17605592
122	0x3cfd5472	0.030924056
123	0xbdb5f599	-0.08884735
124	0x3dc01c8c	0.09380445
125	0xbd75e261	-0.060030345
126	0xbde7d3c8	-0.11319691
127	0xbd3c4789	-0.04596666

model.1.weight f4 [128]
0	0x3f644b43	0.8917734
1	0x3f7a479c	0.9776552
2	0x3f62ff6a	0.8867098
3	0x3f353a23	0.70791835
4	0x3f6e7afa	0.931564
5	0x3f7cbb69	0.98723465
6	0x3f63318c	0.8874748
7	0x3f60a59b	0.87752694
8	0x3f698aab	0.91227216
9	0x3f646c82	0.8922807
10	0x3f59b150	0.8503618
11	0x3f7c8dc1	0.986538
12	0x3f668ac7	0.9005551
13	0x3f3ed564	0.7454436
14	0x3f4759f0	0.7787161
15	0x3f3385b9	0.7012592
16	0x3f8f247b	1.1183008
17	0x3f1faf17	0.6237654
18	0x3f677963	0.90419596
19	0x3f7291be	0.94753635
20	0x3f4fb526	0.81135786
21	0x3f35d895	0.710336
22	0x3f87d817	1.061282
23	0x3f6ad969	0.9173799
24	0x3f65a881	0.8971024
25	0x3f7f185c	0.99646544
26	0x3f62966a	0.88510764
27	0x3f6546ce	0.89561164
28	0x3f3c8a29	0.73648316
29	0x3f21d713	0.632188
30	0x3f6392cd	0.88895875
31	0x3f840b8e	1.0316026
32	0x3f3e405a	0.7431694
33	0x3f540a25	0.8282798
34	0x3f81103f	1.0083083
35	0x3f29bb24	0.6630118
36	0x3f55d4ef	0.83528036
37	0x3f4bc5a0	0.79598427
38	0x3fa56c98	1.2923765
39	0x3f7e3c18	0.99310446
40	0x3f7ee5b0	0.99569225
41	0x3fa62c62	1.2982295
42	0x3f333d97	0.70015854
43	0x3f8be4d9	1.0929214
44	0x3f8ce304	1.100678
45	0x3f89e041	1.0771562
46	0x3f530529	0.8242975
47	0x3f875be9	1.0574924
48	0x3f6e40ca	0.9306761
49	0x3f609249	0.87723213
50	0x3f858762	1.043194
51	0x3f46cad6	0.77653253
52	0x3f375e61	0.71628386
53	0x3f7da753	0.9908344
54	0x3f7820ba	0.96924937
55	0x3f4e0bf7	0.80487007
56	0x3f7f8c4e	0.9982346
57	0x3f4bdf82	0.7963792
58	0x3f5b25e6	0.85604703
59	0x3f7812ec	0.9690387
60	0x3f823c33	1.0174621
61	0x3f6de347	0.9292492
62	0x3f569d08	0.8383336
63	0x3f4b0c5d	0.7931574
64	0x3f30a845	0.6900676
65	0x3f505c79	0.813911
66	0x3f288c56	0.65839136
67	0x3f42eb40	0.76140213
68	0x3f5c28d7	0.85999817
69	0x3f7939bc	0.9735372
70	0x3f1edeb7	0.62058586
71	0x3f80f832	1.0075743
72	0x3f886e6b	1.0658697
73	0x3f631d5b	0.8871667
74	0x3fadb6c6	1.3571403
75	0x3f25b09f	0.6472263
76	0x3f94b8e8	1.1618929
77	0x3f790f30	0.972888
78	0x3f4eac08	0.8073125
79	0x3f224cf3	0.63398665
80	0x3f76eb3b	0.96452683
81	0x3f594878	0.84876204
82	0x3f74c762	0.95616734
83	0x3f1ab481	0.6043168
84	0x3f6fe654	0.9371083
85	0x3f6aadc0	0.9167137
86	0x3f861c23	1.0477337
87	0x3f5a7c62	0.85346043
88	0x3f17ee6e	0.5934819
89	0x3f88d22e	1.0689142
90	0x3f8ec50b	1.1153883
91	0x3f3e5900	0.74354553
92	0x3f4e5806	0.80603063
93	0x3f2cad31	0.6745177
94	0x3f455c02	0.7709352
95	0x3f85c215	1.0449854
96	0x3f8dad60	1.1068535
97	0x3f6d1f7c	0.92626166
98	0x3f721894	0.94568753
99	0x3f912471	1.1339246
100	0x3f8216a5	1.016316
101	0x3f940aa2	1.1565745
102	0x3fb92d5a	1.4466965
103	0x3f61f991	0.88271433
104	0x3f48a4d5	0.78376514
105	0x3f441d74	0.7660744
106	0x3f6a70aa	0.9157816
107	0x3f0efd42	0.5585519
108	0x3f29ffa1	0.66405684
109	0x3f5b0036	0.85547197
110	0x3f79ac0d	0.97528154
111	0x3f422f55	0.7585347
112	0x3f6993ce	0.9124116
113	0x3f1f6274	0.622596
114	0x3f7be913	0.9840252
115	0x3f2e85b3	0.6817276
116	0x3f421474	0.7581246
117	0x3f4f2441	0.80914694
118	0x3f2ea566	0.6822113
119	0x3f3a40ab	0.72754925
120	0x3f721bfb	0.94573945
121	0x3f88d1ae	1.0688989
122	0x3f297851	0.66199213
123	0x3f1f24aa	0.6216532
124	0x3f57384b	0.8407027
125	0x3f6d6dd2	0.927457
126	0x3f42922e	0.760043
127	0x3f5d6e7e	0.8649672

model.1.bias f4 [128]
0	0xbf19e512	-0.6011516
1	0xbebe722a	-0.37196475
2	0xbe77f736	-0.24215397
3	0xbf045e59	-0.51706463
4	0xbebf5b8f	-0.3737454
5	0xbefdb219	-0.4954994
6	0xbf21025a	-0.62894213
7	0xbf4a1b26	-0.78947675
8	0xbeec027a	-0.4609564
9	0xbe44f5ca	-0.19234386
10	0xbeaf3f04	-0.34227765
11	0xbf100318	-0.5625472
12	0xbe2b009c	-0.16699451
13	0xbec0271d	-0.3752984
14	0xbefa9bd7	-0.4894702
15	0xbf1fb0b4	-0.62379
16	0xbf1d7a32	-0.6151458
17	0xbf042444	-0.51617837
18	0xbf080edd	-0.5314768
19	0xbe7a629e	-0.24451682
20	0xbeb2dd53	-0.34934482
21	0xbcc66f8b	-0.02422311
22	0xbf34ac62	-0.70575535
23	0xbe4e5650	-0.20150113
24	0xbdab8c0b	-0.083763205
25	0xbee03027	-0.43786737
26	0xbf09ae02	-0.5378114
27	0xbec07a1e	-0.37593168
28	0xbf3ff219	-0.74978787
29	0xbf39cf87	-0.72582287
30	0xbeccc6c8	-0.39995408
31	0xbf2075f3	-0.62679976
32	0xbe90d1fc	-0.28285205
33	0xbf0c1698	-0.54721975
34	0xbf02614d	-0.5092972
35	0xbf066a70	-0.5250616
36	0xbea944f3	-0.33060417
37	0xbec84d54	-0.39121497
38	0xbed21565	-0.41031948
39	0xbda75e2f	-0.08172261
40	0xbec10d92	-0.37705666
41	0x3d916107	0.070985846
42	0xbf23f6c0	-0.64048386
43	0xbf03bba4	-0.5145819
44	0xbf2c4fb7	-0.67309135
45	0xbf2214e1	-0.6331311
46	0xbf534f6b	-0.8254306
47	0xbf4e5c24	-0.80609345
48	0xbf492cb6	-0.7858385
49	0xbed8420b	-0.42237887
50	0xbedd693f	-0.4324436
51	0xbf2dcefb	-0.6789395
52	0xbeaf5753	-0.3424631
53	0xbf192040	-0.59814835
54	0xbee1faaa	-0.44136554
55	0xbee539b0	-0.44770575
56	0xbe95592a	-0.2916959
57	0xbf13f6d8	-0.5779853
58	0xbe4e24c6	-0.20131215
59	0xbe1db067	-0.15399323
60	0xbf5b3904	-0.85633874
61	0xbf49e8f7	-0.788711
62	0xbebbcf93	-0.36681804
63	0xbef10991	-0.4707761
64	0xbf00a6de	-0.5025462
65	0xbee25575	-0.44205824
66	0xbf10e25b	-0.5659539
67	0xbf1615b0	-0.5862684
68	0xbee4b94e	-0.44672626
69	0xbf09cf32	-0.5383178
70	0xbeae3c24	-0.3403026
71	0xbf056370	-0.52104855
72	0xbef3aec7	-0.47594282
73	0xbee01b04	-0.4377061
74	0xbeac7a1a	-0.33686906
75	0xbf21780a	-0.6307379
76	0xbf09825c	-0.5371454
77	0xbf18b7f2	-0.5965568
78	0xbec61c3b	-0.38693413
79	0xbeb1b3bf	-0.34707448
80	0xbeaef011	-0.3416753
81	0xbf1347ab	-0.5753123
82	0xbf27e56d	-0.6558445
83	0xbe1b7de3	-0.1518474
84	0xbf21893c	-0.6310003
85	0xbecdde73	-0.40208778
86	0xbedc4320	-0.43019962
87	0xbeef4ae9	-0.4673684
88	0xbe7e6950	-0.24844861
89	0xbf07e640	-0.5308571
90	0xbefd7ab6	-0.49507684
91	0xbea68add	-0.3252782
92	0xbef3a66e	-0.47587913
93	0xbf135ebd	-0.57566434
94	0xbf08a8e4	-0.53382707
95	0xbef7a84b	-0.48370585
96	0xbf23a76e	-0.6392735
97	0xbdf59924	-0.119921
98	0xbe3dfad1	-0.1855271
99	0xbeef6094	-0.4675337
100	0xbee47eff	-0.4462814
101	0xbf00862c	-0.5020473
102	0xbecc7e8c	-0.39940298
103	0xbf03da9c	-0.51505446
104	0xbf2083f1	-0.62701327
105	0xbdbc835c	-0.09204742
106	0xbec2078f	-0.37896392
107	0x3de2071a	0.11036511
108	0xbf0379c1	-0.51357657
109	0xbf166b4f	-0.5875749
110	0xbf0820be	-0.5317496
111	0xbed6a911	-0.41925862
112	0xbe9d98cc	-0.30780637
113	0xbecf77f5	-0.40521207
114	0xbf30f9bf	-0.6913108
115	0xbe77cabe	-0.24198434
116	0xbf103fe0	-0.56347466
117	0xbd753e89	-0.05987409
118	0xbf09a919	-0.5377365
119	0xbf239f84	-0.63915277
120	0xbec885f4	-0.39164698
121	0xbf1e471f	-0.6182727
122	0xbf13faa7	-0.5780434
123	0xbf03875e	-0.5137843
124	0xbe9a3144	-0.30115712
125	0xbe722a8e	-0.23649046
126	0xbeb84706	-0.35991687
127	0xbef7bc15	-0.48385683

model.1.running_mean f4 [128]
0	0x3e52e563	0.20595317
1	0xbe904696	-0.28178853
2	0xbe6ec661	-0.23317863
3	0xbd6f2be5	-0.05839147
4	0x3de5b57c	0.11216256
5	0x3caa9e9c	0.020827584
6	0xbdcb53a5	-0.09928063
7	0x3c2f89c8	0.010714002
8	0x3d8b2597	0.06794279
9	0x3d910a8a	0.07082088
10	0x3e172f85	0.14764221
11	0x3d3589da	0.04432092
12	0x3cb53dbe	0.022124168
13	0x3eabbf16	0.33544225
14	0xbe46d588	-0.19417393
15	0xbd8f3fad	-0.06994567
16	0xbd9355ba	-0.071940854
17	0xbe5e253f	-0.21693896
18	0x3e119b19	0.14219321
19	0x3eb58133	0.35450134
20	0x3d517628	0.051138073
21	0x3d8bfcfa	0.06835361
22	0x3eccd5fc	0.40007007
23	0x3e199038	0.14996421
24	0x3d5c7b35	0.053828437
25	0xbd026c86	-0.031841777
26	0xbd87b5e2	-0.06626488
27	0xbdf5c8de	-0.12001203
28	0x3ef39bff	0.47579953
29	0x3d5308e9	0.05152217
30	0xbe86ea72	-0.26350743
31	0x3e2bb96c	0.16769952
32	0xbc799b50	-0.015234783
33	0x3ccc106a	0.02491017
34	0xbdaf07c1	-0.08546401
35	0xbe0039b0	-0.12522006
36	0x3e231202	0.15924838
37	0x3d4b6562	0.049657233
38	0xbe87dbc6	-0.2653486
39	0x3e8d620e	0.27613872
40	0xbe818ee3	-0.25304326
41	0x3e43aa23	0.19107871
42	0xbcfafac4	-0.030637152
43	0x3e3d67f8	0.18496692
44	0xbe16987d	-0.14706607
45	0x3d921a74	0.07133952
46	0x3e063a60	0.13108206
47	0x3e787ff6	0.24267563
48	0xbe03db58	-0.12876642
49	0xbe00c0f3	-0.12573604
50	0x3def43e6	0.116828725
51	0x3d87c210	0.06628811
52	0xbd8a0bec	-0.06740555
53	0x3c915cbc	0.017744415
54	0xbd8574c5	-0.06516413
55	0x3dfdd42c	0.12393984
56	0xbe109927	-0.14120923
57	0xbea0056a	-0.3125413
58	0x3e135012	0.14386013
59	0xbe580a78	-0.21097744
60	0xbe66eb6a	-0.22550741
61	0x3d5be2a6	0.053682946
62	0xbe17e284	-0.14832503
63	0x3da61b1a	0.08110638
64	0x3e873302	0.26406103
65	0x3c973b94	0.018461026
66	0xbdade48c	-0.084908575
67	0x3c14b700	0.009076834
68	0xbc035d94	-0.008017916
69	0x3eb8d4fa	0.36099988
70	0xbb753944	-0.0037418166
71	0x3e2df85a	0.1698927
72	0x3e6f97e2	0.23397782
73	0xbdbbc6a3	-0.09168746
74	0xbe6cffee	-0.23144504
75	0xbe0925bf	-0.13393305
76	0x3e2518a6	0.16122684
77	0x3e2fbb64	0.17161328
78	0x3e4f7c33	0.20262222
79	0xbe0e988e	-0.13925382
80	0xbe1ca7bc	-0.1529836
81	0x3e09f072	0.13470629
82	0x3e740883	0.23831372
83	0x3e5bdcdd	0.21470971
84	0xbe145b9e	-0.14488074
85	0x3ca11755	0.019664446
86	0x3eaeb26c	0.341205
87	0x3e78826e	0.24268505
88	0x3dee7964	0.11644247
89	0xbde07d9f	-0.1096146
90	0xbd06632f	-0.032809433
91	0xbdbfe6c1	-0.09370185
92	0x3df5ac40	0.11995745
93	0x3ea278f8	0.31732917
94	0xbcf74949	-0.030186312
95	0x3bf83ee0	0.0075758547
96	0x3e4c2c4a	0.1993877
97	0x3d2f832c	0.042849705
98	0xbe218078	-0.15771663
99	0xbe21ccba	-0.15800753
100	0xbd8db52d	-0.06919322
101	0x3c225470	0.009907827
102	0x3d252fec	0.040328905
103	0x3d3d44dd	0.04620825
104	0xbda9d68e	-0.08292876
105	0xbeaef2fe	-0.34169763
106	0xbda6b1fd	-0.08139417
107	0x3d681620	0.056661725
108	0x3e1a6443	0.1507731
109	0x3d40ed02	0.04710103
110	0x3d6ad473	0.057331514
111	0x3d2dcc2b	0.042431038
112	0x3e1a70b1	0.15082051
113	0x3e44b5c7	0.19209968
114	0x3e55f2b4	0.20893365
115	0x3c47fb00	0.012205839
116	0xbe286a2a	-0.16446748
117	0xbe6b8a1f	-0.23001908
118	0xbcc762ae	-0.024339046
119	0x3dea07ed	0.11427293
120	0x3e8aca1e	0.27107328
121	0xbe52d4ba	-0.20588961
122	0x3c6ad98a	0.014334092
123	0xbd211a77	-0.03933188
124	0x3d14b786	0.036307834
125	0xbe1316a7	-0.1436411
126	0xbe36084c	-0.17776603
127	0xbb7c5500	-0.0038502812

model.1.running_var f4 [128]
0	0x404f4b6b	3.2389781
1	0x408f2f63	4.4745345
2	0x40b779af	5.733604
3	0x406ff015	3.7490284
4	0x40dd268f	6.910957
5	0x40eb300f	7.3496165
6	0x406e1976	3.720304
7	0x41165d29	9.397744
8	0x4104b2be	8.293638
9	0x40ff3073	7.974664
10	0x404b6caf	3.1785085
11	0x40c0f567	6.0299563
12	0x40f1b977	7.5538898
13	0x413039a7	11.014075
14	0x40bcfad0	5.9056168
15	0x40793044	3.893571
16	0x409e8de4	4.9548206
17	0x407f152c	3.9856672
18	0x40fb696f	7.8566203
19	0x413cb539	11.794244
20	0x40b870f9	5.7637906
21	0x40ec8c32	7.3921137
22	0x40991cda	4.784772
23	0x410e1126	8.879187
24	0x40e8bd20	7.2730865
25	0x40877350	4.232826
26	0x408c9815	4.3935647
27	0x408fd2d7	4.4944873
28	0x40c58b60	6.1732635
29	0x40c20ea2	6.064286
30	0x40f58676	7.6726637
31	0x40f3dd41	7.6207585
32	0x415c88da	13.783411
33	0x407e3149	3.9717581
34	0x40c764a1	6.231034
35	0x4068b9b3	3.6363342
36	0x40a66877	5.200252
37	0x40a0ca87	5.0247226
38	0x4084ecae	4.1538916
39	0x415d7170	13.840195
40	0x4118943d	9.536191
41	0x40c44b41	6.1341863
42	0x40bc2667	5.879688
43	0x40f60b4a	7.688878
44	0x40a553c6	5.1664762
45	0x40fa2e48	7.8181496
46	0x4109ed69	8.620461
47	0x40c32a22	6.098893
48	0x41104c92	9.018694
49	0x4115be62	9.35898
50	0x41329a39	11.162652
51	0x4052c3e3	3.293206
52	0x409b37d8	4.850567
53	0x40fdd2b7	7.931972
54	0x40c42c8c	6.130438
55	0x41403b0f	12.014419
56	0x40c66721	6.200089
57	0x408016f1	4.0028005
58	0x40b01fd1	5.503884
59	0x407f99f7	3.9937723
60	0x4085925e	4.174117
61	0x4088b058	4.2715263
62	0x40894f6d	4.2909455
63	0x409fe358	4.996502
64	0x40c057f7	6.010738
65	0x4053f602	3.3118901
66	0x406bacc0	3.6824188
67	0x402b128d	2.6730072
68	0x40df478d	6.977484
69	0x40c569d6	6.1691694
70	0x4139cda6	11.612707
71	0x41167752	9.404131
72	0x40b2bb7e	5.585387
73	0x40dea736	6.9579115
74	0x40dd106a	6.9082537
75	0x40e8708e	7.2637396
76	0x40654cfd	3.582824
77	0x410f02e6	8.938208
78	0x406e0396	3.7189689
79	0x40907a70	4.514946
80	0x4087ba3c	4.2414837
81	0x407ce75a	3.9516206
82	0x40ceba0e	6.4602118
83	0x40b8f357	5.7797046
84	0x405f4fed	3.4892533
85	0x40f6a2fc	7.7073956
86	0x4117e021	9.492219
87	0x4072a1ef	3.7911336
88	0x404586cb	3.086352
89	0x40f5d109	7.681767
90	0x40cf0053	6.4687896
91	0x410985ed	8.595197
92	0x40b373d2	5.607888
93	0x40b56274	5.668268
94	0x40b395b9	5.6120267
95	0x4107772e	8.466597
96	0x40d66d54	6.7008457
97	0x407e99d3	3.9781387
98	0x40d18200	6.547119
99	0x40a7ef86	5.2479887
100	0x40b678e4	5.702257
101	0x4060ef79	3.5146163
102	0x408bd985	4.3703027
103	0x4068cbb5	3.6374333
104	0x40661b5e	3.5954204
105	0x40ca5cc3	6.3238235
106	0x416d5471	14.833116
107	0x40a843bd	5.258269
108	0x40539aad	3.3063157
109	0x40911c17	4.534679
110	0x409bee2e	4.8728247
111	0x40d3b140	6.615387
112	0x40996058	4.7930107
113	0x404f57d2	3.2397351
114	0x40b0ba8c	5.522772
115	0x40831bfb	4.0971656
116	0x4039eedc	2.9052038
117	0x4135cc5e	11.362394
118	0x40a6d57c	5.21356
119	0x4055d777	3.341276
120	0x4093584e	4.6045294
121	0x4065c133	3.589917
122	0x4044be6b	3.0741222
123	0x4071952a	3.7747293
124	0x4105900e	8.34767
125	0x40a42577	5.1295733
126	0x4061998f	3.5249975
127	0x407506f9	3.8285506

model.4.weight f4 [64, 128]
0	0x3c839469	0.016061978
1	0x3df02c20	0.11727166
2	0x3e0065d0	0.12538838
3	0xbd24409a	-0.04010067
4	0x3d06f856	0.032951675
5	0x3e21be2c	0.15795201
6	0xbd8197dd	-0.06327794
7	0x3cdd5d54	0.027022041
8	0xbcc85358	-0.024453804
9	0x3e6f519e	0.23370978
10	0x3e4e8ef9	0.20171727
11	0x3cb01951	0.021496447
12	0x3e7d2fbd	0.24725242
13	0x3e0b184f	0.13583492
14	0xbea4343c	-0.32071102
15	0x3cee1087	0.029060615
16	0x3d5043a5	0.05084576
17	0x3e4f6630	0.20253825
18	0x3ae7c356	0.0017682116
19	0xbc68fd3f	-0.014220535
20	0x3e91c7f9	0.2847288
21	0x3d4bfe61	0.04980314
22	0xbaddd123	-0.001692329
23	0x3dac358e	0.08408652
24	0x3e0c44c2	0.13698104
25	0x3d484336	0.048892222
26	0x3d37c923	0.044869553
27	0xbe08e909	-0.13370146
28	0xbdd02b6e	-0.101645336
29	0x3d5b201a	0.05349741
30	0x3ddd2f66	0.10800056
31	0x3dbcc637	0.09217494
32	0x3e9fcc53	0.31210575
33	0x3e1d5d6b	0.15367667
34	0x3ea36f54	0.31920874
35	0x3c9734e7	0.018457843
36	0xbdf62f37	-0.12020724
37	0xbc4f8156	-0.012665113
38	0x3d7d5375	0.06184717
39	0x3dadc296	0.0848438
40	0x3d09a262	0.033602126
41	0xbdcac2e2	-0.09900452
42	0x3e738fb7	0.23785292
43	0x3dcb46f4	0.099256426
44	0x3d99213e	0.074770436
45	0x3dafc7d4	0.08583036
46	0x3e54f2d4	0.20795757
47	0xbdcab51d	-0.09897826
48	0xbdb35bd3	-0.087577485
49	0x3e10886b	0.1411454
50	0x3ca4ac8c	0.020101808
51	0x3d866f70	0.06564224
52	0xbd210615	-0.03931244
53	0x3e6338fc	0.22189707
54	0x3e3d48b3	0.18484764
55	0xbc85b457	-0.016321344
56	0x3d240d39	0.040051673
57	0xbcdce4b4	-0.026964523
58	0x3ca76ce5	0.020437667
59	0x3e670690	0.22561097
60	0xbd91ae79	-0.07113356
61	0xbc8835d9	-0.016627239
62	0xbec0076e	-0.37505668
63	0x3d9d8250	0.07690871
64	0x3ae644bc	0.0017568092
65	0x3d2e512f	0.04255789
66	0x3dbcc256	0.09216754
67	0x3e25023f	0.16114138
68	0xbeb38e49	-0.35069492
69	0x3e0eff88	0.13964665
70	0x3d8ffc04	0.0703049
71	0x3db2f625	0.087383546
72	0x3dfc67e0	0.123245
73	0xbcb7cd50	-0.022436768
74	0x3d1d53a3	0.03840984
75	0x3e9d48fa	0.3071974
76	0x3e905aa0	0.2819414
77	0xbd535f68	-0.05160466
78	0x3da5ae19	0.08089847
79	0xbe44df49	-0.19225802
80	0x3db45278	0.08804792
81	0x3e098cca	0.13432613
82	0x3e0201e9	0.12696041
83	0x3ddd15aa	0.10795148
84	0xbf8d0465	-1.1016966
85	0x3e5d39c5	0.21604069
86	0x3dbe1f33	0.092832945
87	0x3e2617b9	0.16219987
88	0x3db260b1	0.08709849
89	0x3d465833	0.048423957
90	0x3e3e3bc5	0.18577488
91	0x3d83e447	0.06440025
92	0xbdbb570c	-0.09147462
93	0xbd25d5da	-0.040487148
94	0x3e82d476	0.2555272
95	0x3d942d9f	0.07235264
96	0xbcedb466	-0.029016685
97	0x3d9f824a	0.077885225
98	0x3e2be928	0.16788161
99	0x3cc7bf32	0.024383161
100	0x3d95bd1c	0.073114604
101	0x3cde05cc	0.027102374
102	0x3e2e2142	0.17004874
103	0xbe9776f8	-0.29582953
104	0x3d1db00b	0.038497966
105	0x3d8f60a1	0.070008524
106	0x3d916339	0.07099003
107	0xbe696d7d	-0.22795673
108	0x3e0b1290	0.135813
109	0x3e10a52b	0.14125507
110	0x3d540c0e	0.05176931
111	0xbdfc4600	-0.12318039
112	0x3da1ee2a	0.07906754
113	0xbe2ae897	-0.16690288
114	0xbd9fe90e	-0.078081235
115	0xbc5190ba	-0.012790853
116	0x3e4229ea	0.18961301
117	0x3d5f49d0	0.054513752
118	0x3d93fe88	0.07226282
119	0x3ea43c78	0.32077384
120	0xbb3a4848	-0.002842443
121	0x3cac83ff	0.021059034
122	0x3e345ca5	0.17613466
123	0xbdc97080	-0.09835911
124	0xbf6200e7	-0.88282627
125	0x3dda2b41	0.10652781
126	0xbc9591a0	-0.018257916
127	0xbdcbfc85	-0.09960274
128	0x3da7a5e8	0.08185941
129	0x3dc57fb9	0.09643502
130	0x3cec3589	0.028834121
131	0x3d9e5540	0.07731104
132	0x3dcb3d96	0.09923856
133	0x3e18fb45	0.14939602
134	0x3ba4a01e	0.0050239703
135	0x3c8ce8a9	0.017200785
136	0xbcd6644e	-0.026170876
137	0x3d7855f2	0.06062884
138	0x3e598e82	0.21245769
139	0x3c499154	0.012302715
140	0x3d5c4cf5	0.05378433
141	0x3e2d6bfd	0.16935726
142	0xbe4413a2	-0.19148114
143	0xbdc67fed	-0.09692369
144	0xbc83fe58	-0.016112491
145	0x3dcf2daa	0.101161316
146	0xbd6c1b56	-0.057643257
147	0x3e3b17e4	0.18270832
148	0x3db35bfd	0.0875778
149	0x3dc5c4d3	0.09656682
150	0xbe20e782	-0.15713313
151	0x3d86d1e7	0.065830044
152	0x3dd0cc04	0.10195163
153	0x3d0e71f2	0.034776635
154	0xbc72a76a	-0.014810422
155	0x3e258419	0.16163673
156	0xbd03abc4	-0.03214623
157	0x3bde3ba5	0.0067820125
158	0x3de9777f	0.11399745
159	0x3a6df5c1	0.00090774527
160	0xbd830ea5	-0.063992776
161	0x3e49d3b6	0.19709668
162	0x3d5489bd	0.05188917
163	0xbda76d47	-0.0817514
164	0xbe1028c2	-0.14078048
165	0x3e1ee515	0.15517075
166	0x3e07888e	0.13235685
167	0x3c6aecf4	0.014338721
168	0x3dfc289a	0.12312432
169	0x3ebd2025	0.36938587
170	0x3e0338d4	0.12814647
171	0x3cc106e7	0.023562862
172	0xbcd60218	-0.026124045
173	0xbd1c67f0	-0.03818506
174	0xbd40c309	-0.047061
175	0xbdf712b7	-0.120641164
176	0xbcbf5eec	-0.023360692
177	0x3e3bf4f4	0.18355161
178	0xbd0d0a2f	-0.03443354
179	0xbe43f21f	-0.1913533
180	0xbf353dba	-0.7079731
181	0x3d131919	0.035912607
182	0x3d8bb559	0.06821699
183	0x3dc48ce9	0.09597189
184	0x3d412690	0.047155917
185	0x3def0cbe	0.11672352
186	0x3ca872e1	0.020562591
187	0x3d9d092d	0.07667766
188	0xbd98a21c	-0.07452795
189	0xbd7bbda6	-0.06146016
190	0xbed32094	-0.41235793
191	0x3ea2fc94	0.31833327
192	0xbd274b5e	-0.04084336
193	0x3cc6b2de	0.024255212
194	0x3ad982ae	0.0016594732
195	0x3cdd5bc3	0.027021294
196	0xbdd677f6	-0.104720995
197	0x3dc1b8e1	0.09459091
198	0xbdf6ac93	-0.12044635
199	0xbca6e66c	-0.020373546
200	0x3d545259	0.051836345
201	0x3d985eb6	0.0743994
202	0x3db2068a	0.086926535
203	0x3d8d4c6d	0.06899343
204	0x3e1efe6d	0.15526743
205	0xbc69d7f7	-0.014272681
206	0x3e0392a9	0.12848915
207	0xbe125838	-0.14291465
208	0xbdeffa49	-0.1171766
209	0x3ea679d9	0.32514837
210	0x3d07f20f	0.03318983
211	0x3da4e816	0.080520794
212	0xbeb6027d	-0.35548773
213	0x3dda250f	0.106515996
214	0xbd48aeaf	-0.048994716
215	0x3e8906d7	0.2676303
216	0xbf3b198f	-0.73085874
217	0x3d3beff0	0.04588312
218	0xbc851a97	-0.01624803
219	0xbeb7c8e5	-0.35895458
220	0x3c9b96fd	0.018992895
221	0x3e8f6d3f	0.28013036
222	0xbef42aaf	-0.47688815
223	0x3c1f06cb	0.009706209
224	0xbc876047	-0.0165254
225	0x3e0e79d7	0.13913666
226	0x3dd01158	0.10159558
227	0x3ab658c1	0.0013911949
228	0xbcf67173	-0.030083394
229	0x3e2abc47	0.16673385
230	0x3e36184f	0.1778271
231	0xbe980b97	-0.29696342
232	0xbeb3bce4	-0.3510505
233	0x3daa8325	0.08325795
234	0x3d168445	0.036747236
235	0xbddbb2f2	-0.107274905
236	0x3d9ec5b4	0.07752553
237	0x3e0210da	0.12701741
238	0xbb8dea1e	-0.0043308875
239	0xbdd1712c	-0.10226664
240	0x3e802a7d	0.25032416
241	0xbe759a63	-0.23984675
242	0xbd3d6e31	-0.046247665
243	0xbf3c6869	-0.7359682
244	0x3d825ee8	0.06365758
245	0x3da1d2c4	0.079015285
246	0x3eaba2de	0.33522695
247	0xbdc9e6a9	-0.09858448
248	0x3e2af5a2	0.16695264
249	0x3dbb879d	0.091567256
250	0xbecdbc17	-0.40182564
251	0xbd75f2bd	-0.060045946
252	0x3e2b6011	0.16735865
253	0x3d87b4e7	0.06626301
254	0xbf36cf8b	-0.71410435
255	0x3dc9d43d	0.09854934

model.4.bias f4 [64]
0	0x3ce2a2a9	0.027665453
1	0xbecc4c35	-0.3990189
2	0x3e09c811	0.13455226
3	0x3de1aa4c	0.1101881
4	0x3dac5dfb	0.08416363
5	0x3b4ed0f0	0.0031557642
6	0xbe14455f	-0.14479588
7	0xbe82b260	-0.25526714
8	0xbe7a1269	-0.24421085
9	0xbb80d9f9	-0.0039322344
10	0xbe33a271	-0.17542435
11	0x3ced269e	0.028949078
12	0xbd9e0972	-0.07716645
13	0xbdccf0d5	-0.100068726
14	0xbe3300c3	-0.1748076
15	0x3de54891	0.111954816
16	0xbd8ebcce	-0.069696054
17	0xbe6a8b63	-0.22904734
18	0x3e0e9568	0.13924181
19	0x3e5e3890	0.21701264
20	0xbeab2e4b	-0.33433756
21	0xbd8e6e48	-0.06954628
22	0x3e938be1	0.28817657
23	0xbe61f347	-0.22065459
24	0xbe01b76a	-0.12667623
25	0xbd28dac9	-0.041224275
26	0xbb5689d4	-0.003273596
27	0x3df196aa	0.11796315
28	0x3e309ff0	0.17248511
29	0x3d70cf86	0.05879166
30	0xbdfef07d	-0.12448213
31	0x3daad88b	0.083420835
32	0xbde80c62	-0.11330487
33	0xbd64af2a	-0.055831112
34	0xbdd80171	-0.1054715
35	0xbdbca4e7	-0.0921114
36	0xbdcfaa36	-0.10139887
37	0xbe19ef1b	-0.15032618
38	0x3c053dd3	0.008132416
39	0x3d50af83	0.05094863
40	0xbd246754	-0.040137604
41	0x3e1e8a5e	0.1548247
42	0xbe014da4	-0.12627274
43	0xbda95ccc	-0.08269653
44	0xbcdaf01c	-0.026725821
45	0xbdccdea8	-0.10003406
46	0xbeb2b0ec	-0.34900606
47	0xbd4ae795	-0.04953726
48	0x3de750d9	0.11294717
49	0xbd513b6f	-0.05108207
50	0x3ea5003d	0.32226744
51	0x3d2d225f	0.042269107
52	0xbcffc45d	-0.031221563
53	0x3d95458e	0.07288657
54	0x3d184b47	0.037181165
55	0xbdfe2031	-0.12408484
56	0xbd31dd76	-0.043424092
57	0xbd11360e	-0.03545194
58	0xbe2f8ba0	-0.17143106
59	0xbdcc0604	-0.09962085
60	0x3d6d0da4	0.057874337
61	0x3dee969e	0.11649822
62	0xbe28fc5b	-0.16502516
63	0xbc980144	-0.018555291

model.5.weight f4 [64]
0	0x3df71ec8	0.12066418
1	0x3f7b6471	0.98200136
2	0x3f14ca9b	0.5812165
3	0x3f6d7ccb	0.92768544
4	0x3e1f3fdf	0.15551709
5	0x3efcf0e6	0.4940254
6	0x3d8fa06b	0.07013019
7	0x3f0d67cf	0.55236524
8	0x3df765bb	0.120799504
9	0x3f1b1643	0.60580844
10	0x3f9600de	1.1719015
11	0x3f801b0c	1.0008254
12	0x3e090737	0.13381658
13	0x3ed67a9d	0.41890422
14	0x3e0be107	0.1366006
15	0x3df4d527	0.11954718
16	0x3f8efabf	1.1170272
17	0x3ddccefc	0.10781667
18	0x3f7a9e9f	0.97898287
19	0x3e9b702b	0.30359015
20	0x3f8df73c	1.1091075
21	0x3f67ef81	0.9059983
22	0x3ec08f39	0.3760927
23	0x3f4f6521	0.81013685
24	0x3f7385f3	0.95126265
25	0x3ddca079	0.10772795
26	0x3c62b87b	0.013837929
27	0x3ea4057e	0.3203544
28	0x3f32f8dc	0.6991098
29	0x3ea15d91	0.31516698
30	0x3e5dae66	0.21648559
31	0x3f80f761	1.0075494
32	0x3f25c6ef	0.64756674
33	0x3f246cdc	0.64228606
34	0x3f54d913	0.8314373
35	0x3edab37d	0.42715064
36	0x3d9ee74d	0.07758961
37	0x3f2ceaec	0.6754596
38	0x3f8bf9da	1.0935624
39	0x3f9afd9b	1.2108644
40	0x3d057215	0.0325795
41	0x3f9122c4	1.1338735
42	0x3f8df445	1.109017
43	0x3f5c7743	0.8611948
44	0x3f913485	1.1344153
45	0x3f849e45	1.03608
46	0x3e0e8d0f	0.13920997
47	0x3e767711	0.24068858
48	0x3e4516d2	0.19246987
49	0x3dd97ee5	0.10619906
50	0x3f452b4f	0.7701921
51	0x3f21b14f	0.63161176
52	0x3ea65bba	0.32491857
53	0x3f8b643e	1.0889966
54	0x3ea0a104	0.31372845
55	0x3f55123f	0.83230966
56	0x3f96ae55	1.1771952
57	0x3f85dce1	1.0458032
58	0x3fa44e6c	1.2836432
59	0x3dcf1106	0.10110669
60	0x3f4729e5	0.777983
61	0x3dd55a8e	0.104176626
62	0x3e8e906a	0.27844554
63	0x3f211d1b	0.62935036

model.5.bias f4 [64]
0	0x3fd0e888	1.6320963
1	0x3fad6765	1.3547179
2	0x3fc5b97e	1.5447233
3	0x3fb21a19	1.3914214
4	0x3fd180b5	1.6367403
5	0x3fc75f8a	1.5576031
6	0x3fd66054	1.6748147
7	0x3fc2ae18	1.5209379
8	0x3fdf560b	1.7448133
9	0x3fbd5f7e	1.4794767
10	0x3fa1168e	1.2585008
11	0x3fb46f70	1.4096508
12	0x3fd54e9e	1.6664617
13	0x3fc42175	1.532271
14	0x3fd10be6	1.6331756
15	0x3fd5a24b	1.6690153
16	0x3faf99a7	1.3718766
17	0x3fd355ed	1.6510597
18	0x3fa46778	1.2844076
19	0x3fc3c74a	1.5295193
20	0x3fafd969	1.3738223
21	0x3fa6adc8	1.3021784
22	0x3fc9f2c2	1.5777209
23	0x3fab3d9e	1.3378179
24	0x3fb864cd	1.4405762
25	0x3fd5822d	1.6680351
26	0x3fd6e227	1.6787766
27	0x3fcbbf11	1.5917684
28	0x3fc29700	1.5202332
29	0x3fc63682	1.5485384
30	0x3fd1b7f7	1.6384267
31	0x3fa15db9	1.2606727
32	0x3fb80e2c	1.4379325
33	0x3fc9a797	1.5754269
34	0x3fabd742	1.3425066
35	0x3fcc901d	1.598148
36	0x3fcf7abc	1.620933
37	0x3fc493ac	1.5357566
38	0x3f9eea1b	1.2415193
39	0x3fa9f15f	1.3276786
40	0x3fcffed6	1.6249645
41	0x3fa6b14d	1.3022858
42	0x3f9abc85	1.2088782
43	0x3fa8c8a0	1.3186226
44	0x3fac4495	1.345843
45	0x3faa5dac	1.3309836
46	0x3fd6f4d5	1.6793467
47	0x3fce9c6e	1.6141489
48	0x3fd477d1	1.6599065
49	0x3fc3e79f	1.530506
50	0x3fc2ae44	1.5209432
51	0x3fc351b2	1.5259306
52	0x3fd224a9	1.6417438
53	0x3fb0c9e5	1.3811613
54	0x3fc771fd	1.5581661
55	0x3fb677ea	1.4255345
56	0x3faecb1b	1.3655733
57	0x3fac3250	1.3452854
58	0x3f8af2ee	1.0855386
59	0x3fd12efe	1.6342466
60	0x3fb4dab8	1.4129248
61	0x3fd2a12b	1.6455435
62	0x3fcbfb51	1.5936071
63	0x3fb1b0f1	1.3882123

model.5.running_mean f4 [64]
0	0x3f705857	0.93884796
1	0x3dc3d764	0.09562567
2	0xbf5d1be2	-0.8637067
3	0x3e90c5ca	0.282759
4	0x3e84bea9	0.25926712
5	0xbf2f6300	-0.68510437
6	0x3f0411c2	0.51589596
7	0xbfacd8bb	-1.3503641
8	0x400f33e3	2.237542
9	0xbf2882b1	-0.6582442
10	0x3ea7c7c1	0.32769588
11	0xbfa5fff2	-1.2968733
12	0xbe6c2b0c	-0.23063296
13	0xbef34645	-0.4751455
14	0x3f07d318	0.5305648
15	0x3f6535c6	0.89535177
16	0xbfac80e1	-1.3476831
17	0x3e4091c5	0.18805607
18	0xbf6e20d9	-0.9301887
19	0xbdc9ca4d	-0.09853039
20	0xbfc05ac2	-1.5027697
21	0xbf73df2e	-0.9526242
22	0xbe26c39c	-0.16285557
23	0xbf86bca8	-1.0526323
24	0xbf652c6a	-0.89520895
25	0x3f88452d	1.0646111
26	0x3f6e8a9f	0.9318027
27	0x3f97418b	1.1816877
28	0xbefe6afa	-0.49690992
29	0x3ecb459b	0.39701542
30	0xbe7ad8ef	-0.24496816
31	0xbf6553e1	-0.89581114
32	0xbf5c541b	-0.86065835
33	0xbf7b3d84	-0.9814074
34	0xbf94717b	-1.1597131
35	0xbec8a2c9	-0.39186695
36	0xbe9ba6bc	-0.30400646
37	0xbf63af7a	-0.8893963
38	0xbf937d4f	-1.1522616
39	0xbfb2536f	-1.3931712
40	0x3fae8078	1.3632956
41	0xbf33943b	-0.70148057
42	0xbf9131f8	-1.1343374
43	0xbf861e20	-1.0477943
44	0xbf68dfde	-0.90966594
45	0xbfbbce33	-1.4672302
46	0xbf0e6a10	-0.5563059
47	0xbf0514f2	-0.51985085
48	0xbea70d2f	-0.32627246
49	0xbde1282f	-0.109939925
50	0xbf3abaf5	-0.72941524
51	0xbf41ad60	-0.75655174
52	0xbe88f646	-0.26750392
53	0xbf800a7a	-1.0003197
54	0xbf13ce7c	-0.57736945
55	0x3d2454f8	0.040120095
56	0xbf6cc336	-0.9248537
57	0xbf9c2c20	-1.2200966
58	0xbfeba4da	-1.8409684
59	0xbf1ceebf	-0.613018
60	0x3ce454de	0.0278725
61	0xbe38d91f	-0.18051575
62	0xbc2fba5e	-0.010725586
63	0xbf3caed3	-0.7370426

model.5.running_var f4 [64]
0	0x4000602c	2.0058699
1	0x3fb776d0	1.4333134
2	0x4049bf18	3.1522884
3	0x3fefae50	1.8725071
4	0x3f66c2d7	0.9014105
5	0x401af1dc	2.421012
6	0x3fec576d	1.846418
7	0x4084a75d	4.14543
8	0x4035a958	2.838461
9	0x401ddb7d	2.4665215
10	0x400b024f	2.172016
11	0x40532f84	3.2997751
12	0x3fbb617d	1.4639126
13	0x3fd68b1e	1.6761205
14	0x3fae0f08	1.3598337
15	0x3fa5f96d	1.2966744
16	0x40a6d7b8	5.213833
17	0x3f859fa2	1.0439341
18	0x408b3c4a	4.3511095
19	0x3fe56031	1.791998
20	0x403201a1	2.7813494
21	0x402970fa	2.6475205
22	0x40527502	3.2883916
23	0x402c4004	2.6914072
24	0x4043f30c	3.0617094
25	0x4046f01b	3.1084049
26	0x404d9332	3.212109
27	0x3ff43476	1.907851
28	0x404b354e	3.1751285
29	0x3fe2c093	1.7715019
30	0x400144ef	2.0198324
31	0x4041bea5	3.027261
32	0x40077c15	2.1169484
33	0x401d6d49	2.4597952
34	0x40226706	2.537538
35	0x401d2755	2.4555256
36	0x4016c79d	2.3559334
37	0x40241c61	2.564232
38	0x406ae780	3.6703796
39	0x409e0add	4.938826
40	0x405c225e	3.4395976
41	0x407a3506	3.9094863
42	0x40048488	2.070589
43	0x4026dfdd	2.6074135
44	0x4044c8e6	3.0747619
45	0x404e7fd7	3.2265527
46	0x3fad2e51	1.352976
47	0x401a17f7	2.4077127
48	0x3fbe3029	1.4858447
49	0x3fcaff19	1.58591
50	0x405d69ab	3.4595745
51	0x407af6c2	3.921311
52	0x401b1957	2.4234216
53	0x4068a89e	3.6352916
54	0x3fe14a56	1.760081
55	0x400bea09	2.1861594
56	0x405da7af	3.4633596
57	0x40811b56	4.034587
58	0x40ae5c7e	5.4487906
59	0x3ffb44da	1.9630387
60	0x3ff5b696	1.9196346
61	0x3fdd6c0d	1.72986
62	0x3fa3b7d5	1.2790476
63	0x40139eea	2.3065743

model.8.weight f4 [1, 64]
0	0x3f2df85c	0.6795709
1	0x3f122415	0.57086307
2	0x3f1dede0	0.61691093
3	0x3f1f99bb	0.6234395
4	0x3f30a978	0.6900859
5	0x3f295243	0.66141146
6	0x3f2fe8f7	0.6871485
7	0x3f29456a	0.6612154
8	0x3f263222	0.64920247
9	0x3f262090	0.64893436
10	0x3f1420d7	0.5786261
11	0x3f1da672	0.615821
12	0x3f2ed501	0.6829377
13	0x3f2a6184	0.6655505
14	0x3f2e2a40	0.6803322
15	0x3f2ebc77	0.68256325
16	0x3f188dc7	0.59591335
17	0x3f2d3433	0.67657775
18	0x3f2fd7fb	0.68688935
19	0x3f307aec	0.68937564
20	0x3f142abe	0.5787772
21	0x3f329fc0	0.6977501
22	0x3f28792d	0.658099
23	0x3f2c4a46	0.6730083
24	0x3f1e68d8	0.6187873
25	0x3f2c4939	0.6729923
26	0x3f2f7958	0.6854453
27	0x3f2c8f2d	0.6740597
28	0x3f23b523	0.6394827
29	0x3f2a2091	0.6645594
30	0x3f2baf54	0.67064404
31	0x3f2d8e66	0.6779541
32	0x3f2fdddf	0.68697923
33	0x3f288072	0.6582099
34	0x3f2fdb40	0.68693924
35	0x3f28ce55	0.6593984
36	0x3f31391c	0.69227767
37	0x3f22ab3d	0.6354254
38	0x3f2baf78	0.6706462
39	0x3f1cff7d	0.61327344
40	0x3f363a16	0.7118238
41	0x3f1e220b	0.61770695
42	0x3f2cbf1f	0.6747913
43	0x3f2f1791	0.68395334
44	0x3f1b266d	0.6060551
45	0x3f294e87	0.6613545
46	0x3f2ca1b8	0.67434263
47	0x3f32f7bf	0.6990928
48	0x3f2ac886	0.66712224
49	0x3f4004aa	0.75007117
50	0x3f239fb9	0.6391559
51	0x3f23edd9	0.640348
52	0x3f2c2272	0.6724006
53	0x3f1d0a13	0.613435
54	0x3f2dfeae	0.67966735
55	0x3f186355	0.5952657
56	0x3f199af7	0.6000208
57	0x3f295d65	0.66158134
58	0x3f2a6e78	0.6657481
59	0x3f2a79bc	0.66592
60	0x3f17ff1b	0.59373635
61	0x3f30ff57	0.6913962
62	0x3f26bdb7	0.6513323
63	0x3f284b4f	0.6573991
