Project1/best_model.pth (torch, 118370 bytes, 13 tensors)

model.0.weight f4 [128, 182]
-0.06007913 -0.061714306 -0.077727556 -0.31064385 0.20750141 -0.07466318 -0.07787246 0.022330847
0.026964493 0.25047776 -0.09841476 0.19489202 0.078795716 -0.16013257 -0.19468848 0.012019502
-0.07286737 0.11341487 -0.002467521 -0.10633374 -0.10225923 -0.04722692 0.053560406 0.095681086
-0.102904856 0.1920425 0.29793748 -0.013567273 -0.09255503 0.09153389 0.20617776 -0.16900003
0.027336285 0.19347595 -0.14852507 -0.092978634 0.10153016 -0.07684395 -0.057489973 -0.013046942
0.1717599 0.073107995 -0.031069977 0.0080160955 0.102247015 0.23548013 0.15072195 0.14376323
0.08614815 -0.012594633 -0.09400159 -0.057511907 -0.08811615 -0.07412322 0.25424767 0.0786639
-0.12589821 -0.03911463 -0.034790177 0.16183038 0.028715745 -0.056699097 0.0013385481 0.16926426
0.12739561 -0.03822624 -0.16509195 -0.27519283 -0.1179419 -0.17291068 -0.15163253 -0.06892496
0.14593688 -0.116752736 0.33298615 0.2114991 0.08268281 0.021069774 -0.21118005 -0.21390204
-0.061760083 -0.15436062 -0.22495751 0.17078839 -0.28166994 0.01225513 -0.029624464 0.010166891
0.0067009246 0.073010296 -0.08207767 -0.05336973 -0.111260295 -0.17733352 -0.032682978 -0.09983178
0.08510588 0.05923472 0.04638355 0.025946908 -0.0381885 -0.07048358 0.03769256 0.12265848
0.045968343 0.25498268 0.061947305 0.39062694 0.06477062 0.087319 0.0170447 -0.113178246
-0.13175158 -0.110348955 -0.15431698 -0.014694233 0.17551216 -0.037134763 0.0079622315 -0.0021948174
0.15034984 0.29150146 0.15207015 0.048128027 -0.11991352 0.06394629 -0.0459581 0.28509042
0.23121893 0.054645725 -0.047892325 -0.021516133 -0.06080135 -0.12037058 0.098665245 0.13803236
0.070830576 -0.10756662 0.06889743 -0.11071473 -0.08882979 0.09771807 -0.009749511 -0.040759202
-0.07067382 -0.079504535 -0.17251326 -0.0313212 -0.091939256 0.03861692 -0.107810974 -0.22681484
-0.2795848 -0.25883308 -0.16760947 -0.2878759 -0.18498372 -0.06103178 -0.032981616 -0.0013048586
0.15261163 -0.15683624 0.15443672 0.043099247 -0.11042771 0.22692838 0.09982179 0.0019712332
0.028712222 -0.05501408 0.051561523 -0.07753354 0.14271037 0.06421746 0.18382604 -0.38525534
0.17321494 0.06537964 0.12878056 -0.0704042 0.058251057 -0.022765305 0.2918732 0.06568685
-0.021816788 -0.081767835 0.14654996 0.045436975 0.31332755 -0.08917472 -0.05926588 0.1679235
-0.13696 -0.26929477 0.066725455 -0.21980128 0.117114395 0.12813078 -0.17743406 -0.056958903
-0.16062394 0.14304817 0.18518159 -0.10780779 0.06801582 0.0059981644 -0.031980254 0.2087942
0.027624864 -0.040312137 0.019838048 0.03077688 0.037820097 -0.012328555 -0.097387396 0.07519648
-0.017767984 0.16496213 0.014409503 0.00041999534 0.26927996 0.11339929 0.12120268 -0.021775112
-0.012323837 0.012218152 0.016528234 0.32332703 0.1853652 -0.22155465 -0.0131449625 -0.064213805
0.1448085 -0.07371642 0.07528833 -0.054008584 0.07230062 0.322155 0.0062439195 -0.04238938
0.008666678 0.066728964 -0.08826815 -0.02697067 0.35289377 -0.073809914 0.0954178 0.11840835
-0.2364722 0.21882343 0.14147677 0.10479226 -0.07428674 0.0010623524 -0.0123736225 0.019869106
00000000: 8915 76bd 24c8 7cbd a02f 9fbd b60c 9fbe
00000010: 407b 543e 02e9 98bd 997b 9fbd 2eef b63c
00000020: a4e4 dc3c 9f3e 803e ad8d c9bd c691 473e
00000030: a65f a13d cbf9 23be 6b5c 47be 72ed 443c
00000040: 7d3b 95bd 0e46 e83d 22b6 21bb 81c5 d9bd
00000050: 4a6d d1bd 0471 41bd 2862 5b3d 72f4 c33d
00000060: c8bf d2bd caa6 443e 438b 983e 4449 5ebc
00000070: 7e8d bdbd 1f76 bb3d 4320 533e 580e 2dbe
00000080: 58f0 df3c 8f1e 463e f516 18be 956b bebd
00000090: 0bef cf3d 5c60 9dbd 9b7a 6bbd d7c2 55bc
000000a0: d4e1 2f3e a5b9 953d 7786 febc f155 033c
000000b0: e266 d13d b421 713e db56 1a3e ab36 133e
000000c0: 716e b03d b859 4ebc e883 c0bd 9b91 6bbd
000000d0: 3d76 b4bd eacd 97bd c02c 823e 8a1a a13d
000000e0: 76eb 00be aa36 20bd 2580 0ebd ddb6 253e
000000f0: 483d eb3c 503d 68bd 3972 af3a 9c53 2d3e
00000100: ff73 023e 1e93 1cbd dd0d 29be 13e6 8cbe
00000110: 868b f1bd 7f0f 31be 8f45 1bbe 8828 8dbd
00000120: 7a70 153e 0f1c efbd 297d aa3e 3893 583e
00000130: 9b55 a93d 859a ac3c 953f 58be 2309 5bbe
00000140: 24f8 7cbd b610 1ebe 435b 66be 27e3 2e3e
00000150: 0b37 90be bec9 483c 01af f2bc 0893 263c
00000160: 6e93 db3b 6c86 953d 5618 a8bd 389a 5abd
00000170: 70dc e3bd eb96 35be 96de 05bd 9b74 ccbd
00000180: fe4b ae3d 1ba0 723d adfc 3d3d 9c8e d43c
00000190: 8b6b 1cbd b259 90bd 8463 1a3d 5f34 fb3d
000001a0: 4d49 3c3d 178d 823e 75bc 7d3d 4100 c83e
000001b0: 75a6 843d 4ed4 b23d 54a1 8b3c ffc9 e7bd
000001c0: e3e9 06be a2fe e1bd 4505 1ebe 15c0 70bc
000001d0: 76b9 333e 9f1a 18bd 0574 023c edd6 0fbb
000001e0: 4ff5 193e ae3f 953e 47b8 1b3e e521 453d
000001f0: 3895 f5bd 46f6 823d 903e 3cbd 5ff7 913e
00000200: a8c4 6c3e 32d4 5f3d be2a 44bd 9a42 b0bc
00000210: d60a 79bd da84 f6bd 0111 ca3d 5b58 0d3e
00000220: 9f0f 913d e34b dcbd 191a 8d3d 68be e2bd
00000230: 65ec b5bd 6920 c83d 6abc 1fbc 1ff3 26bd
00000240: 70bd 90bd 46d3 a2bd 51a7 30be a94a 00bd
00000250: a64a bcbd c72c 1e3d 00cc dcbd 2642 68be
00000260: bd25 8fbe c585 84be d1a1 2bbe 7864 93be
00000270: 5f6c 3dbe 76fc 79bd bb17 07bd ca07 abba
00000280: 3946 1c3e ae99 20be a924 1e3e d688 303d
00000290: ec27 e2bd ea5f 683e 5e6f cc3d ce2f 013b
000002a0: e535 eb3c 7256 61bd 2d32 533d e8c9 9ebd
000002b0: ab22 123e 7284 833d e53c 3c3e 3040 c5be
000002c0: 425f 313e c3e5 853d 0ddf 033e 1430 90bd
000002d0: a998 6e3d 4e7e babc 6770 953e d486 863d
000002e0: 1fb9 b2bc e575 a7bd 3111 163e 1f1c 3a3d
000002f0: 786c a03e 3ca1 b6bd c8c0 72bd 23f4 2b3e
00000300: 3e3f 0cbe 01e1 89be 5ba7 883d 9613 61be
00000310: acd9 ef3d b734 033e 46b1 35be bd4d 69bd
00000320: 9a7a 24be 387b 123e 3ea0 3d3e 55ca dcbd
00000330: e14b 8b3d 408c c43b bafd 02bd 26ce 553e
00000340: 8a4d e23c 571e 25bd 6783 a23c cc1f fc3c
00000350: 3fe9 1a3d b5fd 49bc 0b73 c7bd 9d00 9a3d
00000360: 2a8e 91bc d5eb 283e d615 6c3c d232 dc39
00000370: 10df 893e e33d e83d 1c39 f83d b861 b2bc
00000380: ebe9 49bc a52e 483c 3866 873c 1f8b a53e
00000390: 60d0 3d3e 39df 62be f85d 57bc 8782 83bd
000003a0: ae48 143e a2f8 96bd c530 9a3d 1b38 5dbd
000003b0: 5912 943d 80f1 a43e cb99 cc3b 7da0 2dbd
000003c0: affe 0d3c 32a9 883d efc5 b4bd 98f1 dcbc
000003d0: 7eae b43e a729 97bd 686a c33d 1480 f23d
000003e0: c525 72be 4013 603e 49df 103e 539d d63d
000003f0: a523 98bd a23e 8b3a bcba 4abc 89c4 a23c

model.0.bias f4 [128]
0.035344884 -0.07940037 0.03881507 0.18153064 0.16859087 -0.2615828 -0.05229963 -0.048974488
-0.08780691 -0.12646584 0.034643766 0.005942356 0.05347911 0.20360659 0.01661906 0.31957668
0.020421887 0.034794524 0.005373579 0.03995226 -0.0068985024 -0.00769867 0.078102104 0.038896687
-0.023515904 0.26075992 0.10349387 -0.18707232 -0.08416169 -0.13468792 0.16307892 -0.08343473
0.055261556 0.015069672 -0.09065129 0.1424664 -0.07313612 -0.00443048 -0.067721 -0.17938268
-0.024711346 0.021440359 0.04434593 0.025342206 -0.051188145 0.042507306 0.08858145 -0.023435013
-0.034692265 0.009019678 0.19927107 -0.054006323 0.18152377 0.1386691 -0.13631025 0.03897168
-0.048436034 -0.06833375 0.14170061 0.15986596 -0.015437494 -0.16359945 0.17760703 4.1552204e-05
0.015534158 -0.022978537 -0.02426903 -0.11601037 0.0019304582 -0.0011040666 0.022399908 0.05317878
0.062577136 0.07360135 0.10069214 0.12173491 0.0595976 0.13644004 -0.08116216 0.107173175
-0.061029013 0.23257843 -0.051222872 0.010845133 -0.22490251 -0.19146556 0.029429052 0.018404579
0.014226884 0.0919118 -0.09827332 -0.0814943 -0.015872728 -0.04152416 -0.055234842 0.17747483
0.011853455 -0.15024692 -0.16876498 -0.10352456 -0.08941145 -0.15217495 -0.0960484 -0.012209449
-0.08846673 -0.19847625 -0.048015427 0.057661705 -0.031932846 -0.114068665 0.016582182 -0.15417103
0.2020189 -0.053830307 -0.12594284 -0.1926943 -0.027075466 -0.21397506 -0.07108962 -0.061788697
-0.060969934 0.0719646 -0.15371516 -0.09494308 -0.0089456625 -0.012315702 -0.06747021 0.06964848
00000000: ccc5 103d a99c a2bd 8dfc 1e3d 2be3 393e
00000010: 16a3 2c3e 2eee 85be 2338 56bd 7999 48bd
00000020: 1cd4 b3bd 4380 01be 9fe6 0d3d 18b8 c23b
00000030: e90c 5b3d 3f7e 503e b224 883c 8e9f a33e
00000040: cd4b a73c b484 0e3d d914 b03b fba4 233d
00000050: d50c e2bb 2045 fcbb fff3 9f3d 2252 1f3d
00000060: 6da4 c0bc 5382 853e 98f4 d33d e38f 3fbe
00000070: f75c acbd a1eb 09be 29fe 263e d4df aabd
00000080: f159 623d c9e6 763c 62a7 b9bd b6e2 113e
00000090: 64c8 95bd 8f2d 91bb 4fb1 8abd 18b0 37be
000000a0: 736f cabc b1a3 af3c 14a4 353d 759a cf3c
000000b0: a9aa 51bd 241c 2e3d 316a b53d c9fa bfbc
000000c0: 7a19 0ebd 46c7 133c b70d 4c3e bc35 5dbd
000000d0: 5ee1 393e 46ff 0d3e ea94 0bbe c5a0 1f3d
000000e0: dd64 46bd 91f2 8bbd f719 113e e7b3 233e
000000f0: 8bed 7cbc 9d86 27be 9ede 353e 5748 2e38
00000100: fb82 7e3c 7c3d bcbc d8cf c6bc d896 edbd
00000110: 6e07 fd3a 54b6 90ba 0380 b73c fed1 593d
00000120: 7128 803d 4ebc 963d ae37 ce3d 2750 f93d
00000130: 9d1c 743d f0b6 0b3e 5938 a6bd 9c7d db3d
00000140: 8ff9 79bd 0a29 6e3e 13cf 51bd c9af 313c
00000150: d84c 66be 8c0f 44be 3215 f13c 33c5 963c
00000160: e017 693c 413c bc3d 8643 c9bd 7ce6 a6bd
00000170: 8607 82bc 3d15 2abd ee3d 62bd f6bb 353e
00000180: fe34 423c 54da 19be bad0 2cbe af04 d4bd
00000190: 5a1d b7bd c0d3 1bbe 06b5 c4bd 240a 48bc
000001a0: 0c2e b5bd 5c3d 4bbe d3ab 44bd ae2e 6c3d
000001b0: 04cc 02bd d59c e9bd 5bd7 873c 03df 1dbe
000001c0: 0bde 4e3e 2b7d 5cbd 29f7 00be a851 45be
000001d0: 5ecd ddbc 471c 5bbe 6f97 91bd 2516 7dbd
000001e0: 9cbb 79bd 2d62 933d 8267 1dbe 8471 c2bd
000001f0: d490 12bc ccc7 49bc d22d 8abd dda3 8e3d

model.1.weight f4 [128]
0.7612887 0.83185303 0.8620179 1.0026627 0.7208698 0.8084761 0.70223755 0.677035
1.0931972 0.9090528 1.0455922 0.76011324 0.82070947 0.8574614 0.7786115 0.80154943
0.94309825 0.7308282 0.7208768 0.92255837 1.1834782 0.76728886 1.2143134 0.70365274
0.6736223 0.85943484 0.9225458 0.9079122 0.8510119 0.67173195 0.80711955 0.82459295
1.0164902 0.541466 0.7132255 0.9873209 1.0081822 0.79662246 0.8170507 0.69065946
0.80589473 1.0026649 0.9071701 0.824416 0.8960763 0.8126604 0.9962978 1.0682682
0.80502766 0.94718665 0.8971289 0.9536413 0.83734 1.0322106 0.87229073 1.0695438
1.0202231 0.7649952 0.7903337 0.92833954 0.78457314 1.1176203 0.6301432 0.83348644
0.83898634 0.7724633 1.0565175 0.897737 0.9463605 1.002364 0.72260743 0.7275883
0.7805648 1.0370902 0.71444076 0.98655856 0.9801871 0.9941132 0.6389987 0.896434
1.0346888 1.0875592 1.0768017 1.0680822 0.7250642 0.81813633 0.8817344 0.8250345
0.7287712 0.80497044 0.8612389 0.9556273 1.1124936 0.9060826 0.65775007 1.032167
0.706352 1.0040795 0.8652449 0.8113294 0.86476356 1.2819723 1.0242159 0.80918795
1.1837475 1.0561213 0.99583715 1.0062517 0.6962816 0.95682484 0.9296524 0.9223108
1.0547473 1.2546351 0.739022 0.99047947 0.77127844 0.9434402 1.0195358 0.99477655
0.6730214 0.5648624 0.7832185 0.92002106 1.1348686 0.83159024 0.9158676 1.1325543
00000000: d1e3 423f 52f4 543f 35ad 5c3f 4057 803f
00000010: ec8a 383f 4af8 4e3f d7c5 333f 2a52 2d3f
00000020: e3ed 8b3f afb7 683f f7d5 853f c896 423f
00000030: 041a 523f 9782 5b3f 1553 473f 5832 4d3f
00000040: e36e 713f 8f17 3b3f 628b 383f c92c 6c3f
00000050: 377c 973f 0b6d 443f 9f6e 9b3f 9622 343f
00000060: 8372 2c3f ec03 5c3f f62b 6c3f ef6c 683f
00000070: eadb 593f a0f6 2b3f 639f 4e3f 8618 533f
00000080: 5a1c 823f 849d 0a3f f295 363f 10c1 7c3f
00000090: 1d0c 813f 73ef 4b3f 3c2a 513f 0fcf 303f
000000a0: 1e4f 4e3f 5357 803f 4d3c 683f ed0c 533f
000000b0: 4265 653f 830a 503f 5f0d 7f3f 03bd 883f
000000c0: 4b16 4e3f d37a 723f 3daa 653f d621 743f
000000d0: ea5b 563f 7a1f 843f 724e 5f3f d0e6 883f
000000e0: ac96 823f bad6 433f 4f53 4a3f a9a7 6d3f
000000f0: c9d9 483f 2f0e 8f3f 1151 213f 5e5f 553f
00000100: cfc7 563f 28c0 453f f73b 873f 18d2 653f
00000110: af44 723f 774d 803f cdfc 383f 3a43 3a3f
00000120: 18d3 473f 5fbf 843f 97e5 363f 1a8f 7c3f
00000130: 8bed 7a3f 347e 7e3f 6b95 233f b37c 653f
00000140: af70 843f 2435 8b3f a3d4 893f ebb6 883f
00000150: cf9d 393f 6271 513f 58b9 613f 7635 533f
00000160: c090 3a3f 8b12 4e3f 277a 5c3f fea3 743f
00000170: 3166 8e3f 07f5 673f 4f62 283f 0c1e 843f
00000180: 7cd3 343f ad85 803f b180 5d3f 49b3 4f3f
00000190: 2561 5d3f ab17 a43f 8219 833f f126 4f3f
000001a0: 0a85 973f fc2e 873f 2fef 7e3f dbcc 803f
000001b0: 833f 323f 79f2 743f b3fd 6d3f 901c 6c3f
000001c0: f601 873f e297 a03f 8c30 3d3f 1090 7d3f
000001d0: 8172 453f 4c85 713f 2680 823f ada9 7e3f
000001e0: 214b 2c3f d29a 103f 0281 483f 8086 6b3f
000001f0: 6043 913f 19e3 543f 4d76 6a3f 8af7 903f

model.1.bias f4 [128]
-0.51166624 -0.20430425 -0.37358582 -0.13399841 -0.33979687 -0.17402074 -0.2080791 -0.35329667
-0.71906984 -0.853195 -0.57052135 -0.5120683 -0.47526324 -0.293594 -0.40532315 -0.4959363
-0.48559555 -0.49812278 -0.43596718 -0.34646964 -0.5967644 -0.29889596 -0.31255633 -0.29199618
-0.42150405 -0.5138315 -0.42756107 -0.84995323 -0.36634165 -0.47724336 -0.59661436 -0.19577716
-0.40327927 0.19890332 -0.49519622 -0.6640112 -0.4056416 -0.4323214 -0.2873115 -0.42947552
-0.45779207 -0.6406512 -0.24830285 -0.0140110785 -0.49874622 -0.39765337 -0.37712973 -0.5541284
-0.4032011 -0.3181509 -0.25163814 -0.39793962 -0.5579018 -0.47663972 -0.20229979 -0.32085264
-0.20507292 -0.17103544 0.11465052 -0.24433886 -0.9589499 -0.6687072 -0.30934307 -0.9870102
-0.13650429 -1.1054553 -0.6760956 -0.32191333 -0.24766618 -0.3430204 -0.1036453 -1.0448835
-0.41940707 -0.6096773 -0.3157952 -0.74602824 -0.50272465 -0.4479855 -0.24362992 -0.29542285
-0.2785317 -0.07100726 -0.36933225 -0.5485683 -0.3463452 -0.34865835 -0.3700194 -0.19485635
-0.19781277 -0.31709978 -0.33741748 -0.27123913 -0.42594934 -0.5200158 -0.3864936 -0.21494988
-0.45078677 -0.8323985 -0.35555834 -0.28223753 0.006198208 -0.3779119 -0.21316189 -0.49868163
-0.45132238 -0.6423409 -0.35222197 -0.4777245 -0.43544543 -0.52945185 -0.2232719 -0.32161438
-0.31168294 -0.37738237 -0.48678836 -0.35337356 -0.36297923 -0.47729772 -0.51934564 -0.5062183
-0.28419062 0.11052842 -0.46856347 -0.34272614 -0.42739964 -0.66330975 -0.25915545 -0.49590048
00000000: 8ffc 02bf 2235 51be a446 bfbe e136 09be
00000010: dbf9 adbe 7e32 32be b012 55be 4de3 b4be
00000020: f614 38bf fd6a 5abf b00d 12bf e816 03bf
00000030: b455 f3be f451 96be 8486 cfbe 5deb fdbe
00000040: fb9f f8be f309 ffbe 1737 dfbe 7864 b1be
00000050: 8dc5 18bf e408 99be 6207 a0be 8680 95be
00000060: 61cf d7be 768a 03bf 49e9 dabe 8996 59bf
00000070: 2291 bbbe 3e59 f4be b8bb 18bf cf79 48be
00000080: 9f7a cebe 50ad 4b3e 5c8a fdbe a3fc 29bf
00000090: 41b0 cfbe 3b59 ddbe 7e1a 93be 37e4 dbbe
000000a0: b963 eabe b801 24bf 1a43 7ebe b98e 65bc
000000b0: aa5b ffbe 3999 cbbe 2617 c1be 5cdb 0dbf
000000c0: 6070 cebe ade4 a2be b7d6 80be bebe cbbe
000000d0: a7d2 0ebf 1f0a f4be ad27 4fbe cc46 a4be
000000e0: a3fe 51be ea23 2fbe e4cd ea3d f733 7abe
000000f0: be7d 75bf 6530 2bbf 3762 9ebe b3ac 7cbf
00000100: c8c7 0bbe 8f7f 8dbf 9a14 2dbf d3d1 a4be
00000110: 349c 7dbe 5fa0 afbe fd43 d4bd bebe 85bf
00000120: 86bc d6be d013 1cbf e9af a1be b5fb 3ebf
00000130: 90b2 00bf 5b5e e5be 1f7a 79be aa41 97be
00000140: b59b 8ebe 416c 91bd 1e19 bdbe f96e 0cbf
00000150: 2854 b1be 5983 b2be 2f73 bdbe 6c88 47be
00000160: 6e8f 4abe e75a a2be fcc1 acbe dbdf 8abe
00000170: 0816 dabe c11f 05bf 7de2 c5be d21b 5cbe
00000180: 86cd e6be 1118 55bf be0b b6be 7081 90be
00000190: 561a cb3b ab7d c1be 1c47 5abe 3353 ffbe
000001a0: ba13 e7be 7470 24bf 7056 b4be 4e98 f4be
000001b0: b4f2 debe 288a 07bf 64a1 64be a4aa a4be
000001c0: e894 9fbe 4338 c1be 533c f9be 61ed b4be
000001d0: 6ad8 b9be 5e60 f4be d6f3 04bf 8697 01bf
000001e0: 6f81 91be b95c e23d 8de7 efbe cd79 afbe
000001f0: 20d4 dabe abce 29bf 06b0 84be abe6 fdbe

model.1.running_mean f4 [128]
-0.029296637 -0.08515545 0.0135539975 0.1767225 0.09038019 -0.26905322 -0.039116163 -0.07595464
-0.107791096 -0.20400953 -0.07435632 -0.027574021 0.02148281 0.32763264 0.12149124 0.36177674
-0.036126807 -0.034144815 0.044828415 0.0029705903 -0.012662401 0.090963684 0.05420004 0.11180611
-0.096143395 0.27797848 0.22316466 -0.2067527 -0.10932042 -0.18361771 0.18937172 -0.13453457
-0.0064943396 -0.03429069 -0.11963348 0.13998798 0.028077245 -0.07919558 -0.10171714 -0.24503706
-0.010933317 0.08250553 0.08440175 -0.027870443 -0.020433307 0.100134365 0.23331258 0.015644489
-0.015066925 0.022958843 0.13505884 -0.10502232 0.13518098 0.13784686 -0.22060534 -0.002421081
-0.079742074 -0.05855135 0.2104769 0.3226289 -0.020557635 -0.2266456 0.23176636 0.033964105
-0.032783616 -0.06359777 -0.0069619045 -0.040299047 0.008719235 0.07664795 0.063609704 0.06678254
0.093934484 0.09247007 0.08056182 0.20883062 0.0057278965 0.11631699 -0.11423321 0.057503294
-0.12664434 0.10284097 -0.08582679 -0.015889082 -0.227991 -0.2031186 -0.03672044 0.02681239
0.083184585 0.09917666 -0.06404573 -0.0069669336 0.007988822 -0.070983745 -0.047447626 0.1341888
0.020807132 -0.15539044 -0.21654548 -0.08330194 -0.06616791 -0.24491346 -0.04581558 0.0137780905
0.008840412 -0.23374322 -0.20948294 0.04847093 0.0054640397 -0.12407361 0.033503015 -0.19770908
0.19339111 -0.036331348 -0.10795235 -0.24205706 -0.023513764 -0.2794655 -0.059490163 -0.080438465
-0.06923379 0.07615987 -0.21317229 -0.09240954 -0.03807135 -0.067267 -0.13379937 0.06005106
00000000: 80ff efbc fb65 aebd 9611 5e3c bef6 343e
00000010: 4019 b93d 58c1 89be 4538 20bd 1b8e 9bbd
00000020: 94c1 dcbd e0e7 50be 2048 98bd eae2 e1bc
00000030: b8fc af3c 77bf a73e 66d0 f83d cd3a b93e
00000040: b4f9 13bd 6fdb 0bbd 009e 373d 3cae 423b
00000050: f675 4fbc 2b4b ba3d dc00 5e3d 9afa e43d
00000060: d4e6 c4bd 3253 8e3e 4785 643e fbb6 53be
00000070: 62e3 dfbd 4806 3cbe a9ea 413e 6ec3 09be
00000080: 78ce d4bb 6574 0cbd 6602 f5bd 0259 0f3e
00000090: 4002 e63c 4b31 a2bd 1351 d0bd ffea 7abe
000000a0: a821 33bc a9f8 a83d d3da ac3d 8e50 e4bc
000000b0: c063 a7bc 3f13 cd3d 7ee9 6e3e df28 803c
000000c0: 44db 76bc 2f14 bc3c dd4c 0a3e f115 d7bd
000000d0: e26c 0a3e ba27 0d3e 5ee6 61be 00ab 1ebb
000000e0: d04f a3bd 8ad3 6fbd 4287 573e 9d2f a53e
000000f0: 7c68 a8bc c915 68be 2954 6d3e f21d 0b3d
00000100: 1d48 06bd 8c3f 82bd b020 e4bb 9d10 25bd
00000110: 1fdb 0e3c 9af9 9c3d ce45 823d 49c5 883d
00000120: b960 c03d f360 bd3d 98fd a43d b2d7 553e
00000130: 14b1 bb3b 9a37 ee3d 1af3 e9bd 9388 6b3d
00000140: 0eaf 01be 499e d23d f5c5 afbd d229 82bc
00000150: 7976 69be 53fe 4fbe 2c68 16bd a8a5 db3c
00000160: ae5c aa3d 221d cb3d 682a 83bd e04a e4bb
00000170: 8ce3 023c ed5f 91bd 7158 42bd ca68 093e
00000180: b873 aa3c ac1e 1fbe 19be 5dbe 359a aabd
00000190: 0b83 87bd 98ca 7abe 1ea9 3bbd 80bd 613c
000001a0: 60d7 103c 625a 6fbe b282 56be 7489 463d
000001b0: b00b b33b 4e1a febd 753a 093d 4074 4abe
000001c0: 5208 463e 2ed0 14bd 1f16 ddbd cedd 77be
000001d0: f09f c0bc 1a16 8fbe f5ab 73bd ecbc a4bd
000001e0: 72ca 8dbd b5f9 9b3d d649 5abe 3741 bdbd
000001f0: b4f0 1bbd 48c3 89bd b402 09be 1af8 753d

model.1.running_var f4 [128]
3.1965048 5.163195 4.682241 4.2766314 2.1977048 5.984214 5.1552773 3.2471085
8.691929 8.63546 17.693287 3.567886 5.311397 4.7132382 7.0734487 2.9008088
6.378262 3.9163728 4.111815 2.7424119 4.4686117 2.5372708 5.5496035 3.117234
4.051952 3.694592 12.438027 8.585158 2.5465677 3.934417 3.129359 3.921671
4.6572037 10.189817 3.674529 4.8817916 3.5520167 5.6531987 4.2336082 3.079123
23.2848 5.7950983 5.824948 5.679499 18.547062 5.9265275 5.0200086 3.462644
2.7842712 3.4085073 4.6989007 2.8358235 10.203441 4.458218 6.5820847 3.7864392
4.6592035 9.358419 8.822526 12.007767 7.600383 3.6577945 11.193935 6.037898
3.329179 6.249918 8.728811 3.342806 4.4806414 5.077552 3.7753792 4.2211294
4.816413 3.9131417 2.4441707 4.023174 11.939751 5.1210203 4.881439 3.061282
4.327311 4.9565225 5.1758595 4.7919765 3.3783233 4.1211734 4.773435 13.845975
3.8255994 12.297863 6.78428 7.473633 3.5468967 11.592315 3.962416 2.365406
2.1885855 4.990952 2.7233884 3.4033937 7.7169447 4.1762 3.0692286 2.1368253
11.39204 7.5666986 3.8025773 5.597524 32.718822 5.1468115 4.5537033 4.504259
5.6515055 8.653294 2.3219397 2.7849808 3.820023 29.46642 3.9319718 3.9772828
2.635256 3.5309405 2.7601929 4.702162 5.5205474 3.3534324 5.0984454 4.009652
00000000: 8993 4c40 e538 a540 ebd4 9540 2ada 8840
00000010: 32a7 0c40 ae7e bf40 08f8 a440 a0d0 4f40
00000020: 2412 0b41 d82a 0a41 da8b 8d41 3f58 6440
00000030: f7f6 a940 d9d2 9640 b159 e240 daa6 3940
00000040: b91a cc40 daa5 7a40 fd93 8340 ad83 2f40
00000050: defe 8e40 a562 2240 5a96 b140 c380 4740
00000060: 97a9 8140 3274 6c40 2902 4741 cf5c 0941
00000070: f7fa 2240 7dcd 7b40 6b47 4840 a8fc 7a40
00000080: d007 9540 7e09 2341 7c2b 6b40 a337 9c40
00000090: 3e54 6340 01e7 b440 b879 8740 5a10 4540
000000a0: 4547 ba41 7271 b940 f965 ba40 75be b540
000000b0: 6260 9441 1da6 bd40 e9a3 a040 f69b 5d40
000000c0: 8031 3240 fc24 5a40 655d 9640 227e 3540
000000d0: 4b41 2341 b9a9 8e40 70a0 d240 0555 7240
000000e0: 3218 9540 16bc 1541 1129 0d41 d01f 4041
000000f0: 5636 f340 4e19 6a40 5c1a 3341 7636 c140
00000100: 4511 5540 54ff c740 36a9 0b41 89f0 5540
00000110: 6a61 8f40 4e7b a240 d09f 7140 7e13 8740
00000120: 0e20 9a40 ea70 7a40 4b6d 1c40 d7bd 8040
00000130: 3809 3f41 66df a340 c034 9c40 0bec 4340
00000140: 5579 8a40 d59b 9e40 a4a0 a540 df57 9940
00000150: 7336 5840 a7e0 8340 fbbf 9840 1d89 5d41
00000160: 9fd6 7440 0cc4 4441 d218 d940 0028 ef40
00000170: 5b00 6340 1f7a 3941 3998 7d40 d062 1740
00000180: c911 0c40 e1b5 9f40 ff4b 2e40 34d1 5940
00000190: 36f1 f640 6ea3 8540 3e6e 4440 bfc1 0840
000001a0: cc45 3641 6522 f240 6d5d 7340 eb1e b340
000001b0: 13e0 0242 aeb2 a440 f0b7 9140 e422 9040
000001c0: 22d9 b440 e473 0a41 a99a 1440 203d 3240
000001d0: 427b 7440 3abb eb41 6da5 7b40 cd8b 7e40
000001e0: 09a8 2840 eefa 6140 00a7 3040 1c78 9640
000001f0: 53a8 b040 a39e 5640 7726 a340 124f 8040

model.4.weight f4 [32, 128]
0.1100022 0.039463438 0.021774635 -0.060069185 0.079768665 0.08422325 0.07788344 0.033482295
0.20306751 0.11943304 0.06740503 0.12421639 0.28182456 0.046641126 -0.039784044 -0.23324941
0.010372837 0.056935526 0.07383494 -0.08292498 -0.016721647 -0.03908559 0.037909914 0.02588722
0.0009896718 -0.17596112 0.15076448 0.19361125 0.06590257 0.053437915 0.0487458 0.1522039
0.032181628 -0.026365574 -0.3260542 -0.4552781 -0.10074432 0.11105046 0.047020573 0.0029641492
0.04980275 -0.3088199 0.038860608 -0.0003689035 0.07043654 0.15769547 -0.57420635 -0.33999375
0.17118739 -0.1454938 0.048984125 0.053735044 0.18997467 -0.06479132 0.055810742 0.100858934
0.12567717 0.13512728 0.054226555 -0.39088935 -0.34709287 -0.042969383 0.023185758 -0.6355585
-0.25434786 -0.27020735 -0.096604966 -0.19449794 0.12370133 0.0067877956 0.0358675 -0.42381
0.053941883 -0.050496504 0.09472514 -0.2630291 0.026063075 -0.02030442 0.0038089459 0.06025334
0.09285308 -0.09407323 0.005196726 -0.008152157 0.027392268 -0.28901163 0.06251746 0.059236344
0.076693386 0.058220997 -0.22096564 0.15352158 -0.24108511 -0.058067106 0.040616505 -0.151745
-0.092322424 -0.59370244 0.076230235 0.06470807 0.009876041 0.085690714 -0.421541 -0.051838886
-0.01870049 0.16241923 0.010133103 -0.079156086 0.13506296 -0.7448506 0.05359731 0.052431427
-0.1839134 0.00766233 0.12595285 0.052137535 0.02120938 -0.014885388 0.0030735163 -0.20425649
0.066999376 0.06503507 0.045729607 -0.0055596973 -0.032438867 -0.052111596 0.12051061 -0.19953358
0.051232334 0.047659554 0.035145484 -0.45645702 -0.005711135 -0.25283542 -0.43969253 -0.054153875
-0.047038723 -0.076516785 0.02754262 -0.090951756 -0.11525315 -0.36786416 -0.0036330647 0.06279085
-0.10974502 -0.0060714735 0.106202625 0.039530076 0.20029914 -0.2660984 0.049599584 -0.13846962
-0.008662507 -0.0017518818 -0.0129293 -0.10827117 -0.056917183 0.062627986 -0.1252546 0.03741902
0.04180149 -0.13266811 0.06991288 -0.07142498 -0.0107774 -0.024901554 0.028209856 -0.027657887
-0.013140146 -0.013007612 0.23140728 -0.071864136 -0.09588869 -0.047778912 -0.034033723 0.008887276
0.051884815 0.06265441 0.12703562 -0.14785549 -0.14698504 0.025299128 -0.56161606 0.16583712
0.121269055 0.010175655 0.010184206 -0.062621884 0.012155207 0.049240235 0.043543596 -0.03156521
0.20374025 -0.024627822 -0.01327573 0.03702116 0.033262666 0.032284044 -0.01261048 0.038181443
-0.037190072 0.09645657 0.13567151 -0.10786311 0.017548714 0.03057074 0.03362485 0.05195395
0.041067306 0.2051908 -0.06399173 0.10343404 -0.24208608 0.055330966 -0.053820457 -0.035645515
-0.38139564 0.036322672 0.023260523 -0.0737319 0.13500315 0.045934495 0.058155492 0.17087182
0.24104577 0.0013628656 0.013134727 0.05638945 0.08064289 0.063682646 0.10482041 0.06571851
0.0902575 -0.07570091 -0.12326558 -0.033977695 -0.075708196 -0.022903005 -0.6416758 -0.85118574
0.0946776 0.14421609 0.12297748 0.0065403283 -0.019406956 0.08562911 0.02845386 0.032852232
-0.10050687 -0.12273048 -0.025813105 -0.038494587 -0.021336783 -0.036588293 0.02098643 0.13791586
00000000: d548 e13d 6aa4 213d b860 b23c 1b0b 76bd
00000010: c15d a33d 3d7d ac3d 5a81 9f3d bb24 093d
00000020: eef0 4f3e 4f99 f43d a60b 8a3d 2a65 fe3d
00000030: 4f4b 903e c40a 3f3d 98f4 22bd efd8 6ebe
00000040: d5f2 293c 3a35 693d c636 973d 92d4 a9bd
00000050: d6fb 88bc 3618 20bd 6d47 1b3d 6f11 d43c
00000060: e0b7 813a 272f 34be 0162 1a3e 0742 463e
00000070: edf7 863d b7e1 5a3d ada9 473d 57db 1b3e
00000080: e2d0 033d 9efc d7bc 93f0 a6be 361a e9be
00000090: 0a53 cebd 6c6e e33d a598 403d 2c42 423b
000000a0: f8fd 4b3d a41d 9ebe 4d2c 1f3d 6469 c1b9
000000b0: 0841 903d ec7a 213e 30ff 12bf a913 aebe
000000c0: bf4b 2f3e 54fc 14be 94a3 483d 4719 5c3d
000000d0: b888 423e 50b1 84bd ce99 643d 218f ce3d
000000e0: 84b1 003e ce5e 0a3e aa1c 5e3d a622 c8be
000000f0: 28b6 b1be aa00 30bd 0ff0 bd3c f6b3 22bf
00000100: e239 82be 9e58 8abe d3d8 c5bd 782a 47be
00000110: 1f57 fd3d 286c de3b cde9 123d a0fd d8be
00000120: 2af2 5c3d 6cd5 4ebd 41ff c13d c0ab 86be
00000130: 3b82 d53c 7455 a6bc 829f 793b 35cc 763d
00000140: c129 be3d 77a9 c0bd 4c49 aa3b a090 05bc
00000150: c065 e03c 55f9 93be 2709 803d cfa1 723d
00000160: 6c11 9d3d 2479 6e3d d144 62be c334 1d3e
00000170: 04df 76be c6d7 6dbd 7e5d 263d 0b63 1bbe
00000180: 8a13 bdbd e2fc 17bf 991e 9c3d aa85 843d
00000190: 1ecf 213c 9d7e af3d 39d4 d7be 0355 54bd
000001a0: c531 99bc 3a51 263e 5005 263c 961c a2bd
000001b0: f24d 0a3e 87ae 3ebf da88 5b3d 56c2 563d
000001c0: cb53 3cbe 4814 fb3b c9f9 003e 2b8e 553d
000001d0: 4bbf ad3c d8e1 73bc 0c6d 493b 9d28 51be
000001e0: f836 893d 1b31 853d f84e 3b3d 1f2e b6bb
000001f0: 9ede 04bd f872 55bd 44ce f63d 8852 4cbe
00000200: ffd8 513d aa36 433d b6f4 0f3d bcb4 e9be
00000210: 7924 bbbb a573 81be 611f e1be 74d0 5dbd
00000220: adab 40bd d5b4 9cbd 10a1 e13c ea44 babd
00000230: d809 ecbd b158 bcbe b618 6ebb 7d98 803d
00000240: ffc1 e0bd 36f3 c6bb c380 d93d 4aea 213d
00000250: 381b 4d3e 0d3e 88be ef28 4b3d fbca 0dbe
00000260: 30ed 0dbc 669f e5ba 6ad5 53bc 46bd ddbd
00000270: fe21 69bd 1a43 803d be42 00be b044 193d
00000280: 0a38 2b3d 26da 07be 7c2e 8f3d 4347 92bd
00000290: b193 30bc 58fe cbbc 5b18 e73c cb92 e2bc
000002a0: c449 57bc e11d 55bc 08f6 6c3e 812d 93bd
000002b0: 4a61 c4bd d2b3 43bd f266 0bbd f09b 113c
000002c0: 2c85 543d f550 803d a015 023e 6e67 17be
000002d0: 3f83 16be 1e40 cf3c 12c6 0fbf 35d1 293e
000002e0: e95b f83d cab7 263c a8db 263c e73f 80bd
000002f0: a226 473c 21b0 493d c55a 323d 864a 01bd
00000300: 49a1 503e 49c0 c9bc 7382 59bc 80a3 173d
00000310: 6f3e 083d 463c 043d 309c 4ebc 2564 1c3d
00000320: 9e54 18bd 068b c53d 79ed 0a3e 56e7 dcbd
00000330: 52c2 8f3c 7d6f fa3c 36ba 093d aacd 543d
00000340: 3136 283d 891d 523e 190e 83bd 3ad5 d33d
00000350: 6ae5 77be b9a2 623d d772 5cbd 0801 12bd
00000360: 4a46 c3be 15c7 143d da8c be3c c000 97bd
00000370: 443e 0a3e cf25 3c3d 7434 6e3d 06f9 2e3e
00000380: b4d4 763e 2ea2 b23a 0a33 573c a0f8 663d
00000390: 1928 a53d 0c6c 823d 15ac d63d 6d97 863d
000003a0: edd8 b83d 1409 9bbd aa72 fcbd 322c 0bbd
000003b0: e60c 9bbd 159f bbbc dd44 24bf 4fe7 59bf
000003c0: 54e6 c13d 62ad 133e 9edb fb3d 4050 d63b
000003d0: 56fb 9ebc 515e af3d 1218 e93c 1090 063d
000003e0: 8cd6 cdbd 1e5a fbbd 0176 d3bc 80ac 1dbd
000003f0: 7aca aebc 9bdd 15bd bceb ab3c d139 0d3e

model.4.bias f4 [32]
-0.10898343 -0.22885041 0.049621824 -0.08749098 0.12340494 0.09899982 -0.105028994 0.028980967
0.010057865 0.062101196 -0.20027196 -0.019556588 -0.07780277 -0.1737719 0.13179182 -0.11323064
0.05789381 0.10621389 -0.31299344 -0.11306316 0.03086772 -0.027019622 0.015221344 -0.17978658
-0.013495255 0.14605471 0.16198269 -0.15887123 0.10779645 0.08174195 -0.059488393 0.0694614
00000000: b432 dfbd c357 6abe 4140 4b3d 792e b3bd
00000010: bbbb fc3d 6bc0 ca3d 7119 d7bd 7e69 ed3c
00000020: bec9 243c d35d 7e3d 1814 4dbe 2335 a0bc
00000030: 0f57 9fbd 43f1 31be 6ff4 063e 77e5 e7bd
00000040: 0f22 6d3d ab86 d93d ad40 a0be a88d e7bd
00000050: 4dde fc3c 4158 ddbc f262 793c f919 38be
00000060: 341b 5dbc 5e8f 153e cade 253e 24af 22be
00000070: 63c4 dc3d 5368 a73d 1aaa 73bd c741 8e3d

model.5.weight f4 [32]
1.2597239 0.99097556 1.010238 0.6931879 1.1830765 1.2128286 1.0809022 1.0320911
0.97992617 0.9144986 0.70762104 1.1518389 1.2575314 1.3116814 0.90885055 0.8492326
0.8787639 0.8217837 0.8723537 0.96809083 0.35425732 0.81212187 0.9510464 0.57818764
0.7332888 1.0677645 0.8561466 1.3469627 0.855405 1.1761264 1.1203176 1.15327
00000000: a23e a13f 93b0 7d3f 7b4f 813f c374 313f
00000010: 0d6f 973f f83d 9b3f 015b 8a3f 901b 843f
00000020: 71dc 7a3f 951c 6a3f a726 353f 756f 933f
00000030: caf6 a03f 2de5 a73f 6eaa 683f 4f67 593f
00000040: acf6 603f 6b60 523f 9252 5f3f cdd4 773f
00000050: 3761 b53e 38e7 4f3f c777 733f 1b04 143f
00000060: d1b8 3b3f 82ac 883f 6c2c 5b3f 4669 ac3f
00000070: d2fb 5a3f 4f8b 963f 9166 8f3f 5a9e 933f

model.5.bias f4 [32]
1.8735863 1.9109002 1.9379292 1.9864917 1.8170122 1.9152087 1.9036746 1.9314628
1.7826629 1.8834065 1.9733281 1.8638868 1.6103195 1.8402163 1.8303434 2.007949
1.8572873 1.8023937 1.9767714 1.9600029 1.9754062 1.9697944 1.9841931 2.0551908
1.8836281 1.8234476 2.0088918 1.8729782 1.9436729 1.9577692 1.81037 1.8573925
00000000: add1 ef3f 6198 f43f 100e f83f 5c45 fe3f
00000010: db93 e83f 8f25 f53f 9cab f33f 2c3a f73f
00000020: 4c2e e43f 7713 f13f 0496 fc3f d893 ee3f
00000030: f31e ce3f 358c eb3f b148 ea3f 3d82 0040
00000040: 97bb ed3f d6b4 e63f d806 fd3f 60e1 fa3f
00000050: 1cda fc3f 3922 fc3f 0afa fd3f 3f88 0340
00000060: ba1a f13f bb66 e93f af91 0040 c0bd ef3f
00000070: 46ca f83f 2e98 fa3f 34ba e73f 0abf ed3f

model.5.running_mean f4 [32]
-0.6915401 -0.71099794 -0.36690566 -0.3509066 -0.40573162 -0.28759626 -0.6368191 -0.51493293
-0.53456444 0.9008215 -0.5248608 -0.9648399 -1.1683358 -1.2899705 -0.45038334 -0.23271935
-0.4729555 -0.7021062 -0.99742824 -0.85144186 0.07119833 0.62139815 -0.5309235 0.6295024
0.172117 -0.44958827 -0.4142817 -1.1110905 -0.2369135 -0.8447238 -0.6945819 -0.8040129
00000000: c608 31bf f603 36bf 0fdb bbbe 08aa b3be
00000010: 0ebc cfbe d13f 93be 9406 23bf a5d2 03bf
00000020: 37d9 08bf 3d9c 663f 475d 06bf bfff 76bf
00000030: 078c 95bf c11d a5bf a598 e6be fb4d 6ebe
00000040: 3927 f2be 3bbd 33bf 7557 7fbf 18f8 59bf
00000050: 6ed0 913d f313 1f3f 9aea 07bf 1227 213f
00000060: 703f 303e 6f30 e6be bb1c d4be 3738 8ebf
00000070: 7499 72be d23f 58bf 1fd0 31bf cad3 4dbf

model.5.running_var f4 [32]
2.4305823 1.8722537 2.765517 1.8998725 3.1229374 2.2884648 2.8046012 2.3219137
2.740885 1.9955105 2.662007 3.2878525 3.1030679 2.998041 3.2548838 1.9503664
2.326731 2.27072 2.305605 2.6741889 1.492112 1.8394821 1.9717982 1.961685
1.6447335 2.9755948 2.0931513 2.721808 1.9657477 2.3377724 3.0753965 2.600371
00000000: a98e 1b40 02a6 ef3f 3bfe 3040 062f f33f
00000010: 35de 4740 3576 1240 967e 3340 3c9a 1440
00000020: a96a 2f40 e36c ff3f 535e 2a40 2d6c 5240
00000030: aa98 4640 e7df 3f40 0450 5040 9ba5 f93f
00000040: 29e9 1440 7a53 1140 088f 1340 e925 2b40
00000050: 87fd be3f 2674 eb3f e263 fc3f 7e18 fb3f
00000060: a186 d23f 2570 3e40 31f6 0540 1a32 2e40
00000070: 9f9d fb3f 109e 1540 4cd3 4440 7a6c 2640

model.8.weight f4 [1, 32]
0.9715049 0.9889474 1.0593214 1.0171278 1.034051 0.9707 0.9932331 0.9770598
1.0688099 1.0005599 1.0403148 0.97919106 1.0658439 0.9667332 1.1142936 1.002064
1.0497077 1.0578427 1.0040199 0.983881 1.1195481 1.0186644 1.0039647 1.0333401
1.0876354 1.0763202 1.0465902 0.9771189 1.0116656 0.98622274 1.0507824 0.9776694
00000000: 8cb4 783f a82b 7d3f d897 873f 3e31 823f
00000010: c85b 843f cc7f 783f 8644 7e3f 9720 7a3f
00000020: c3ce 883f 5912 803f 0929 853f 44ac 7a3f
00000030: 936d 883f d47b 773f 2ca1 8e3f a243 803f
00000040: d25c 863f 6467 873f b983 803f a0df 7b3f
00000050: 5a4d 8f3f 9863 823f ea81 803f 7d44 843f
00000060: a337 8b3f dcc4 893f abf6 853f 7724 7a3f
00000070: 427e 813f 1879 7c3f 0a80 863f 8b48 7a3f
